models/003-lstm.pt (torch, 71071 bytes, 5 tensors)

lstm.weight_ih_l0 f4 [256, 1]
0.12702508 0.08541105 0.053614866 0.055960845 0.059720416 0.0717832 0.054595467 0.07381855
0.06791997 0.1373223 0.061606783 0.05772157 0.06326097 0.07932597 0.053555828 0.055661667
0.06533017 0.188921 0.20587835 0.11219731 0.052902114 0.063180886 0.13166295 0.061052226
0.078885905 0.052317016 0.055444315 0.062907755 0.07352951 0.055170268 0.055179242 0.13793023
0.07524457 0.062395193 0.07257353 0.060654625 0.19476542 0.11571545 0.06326215 0.06479662
0.05540591 0.095625885 0.06375496 0.055256337 0.07481929 0.072241016 0.048178364 0.063158184
0.07586889 0.060973708 0.058785763 0.086232744 0.053231835 0.044125095 0.052325837 0.05545
0.0929805 0.05742608 0.052613992 0.05455262 0.049962465 0.14096117 0.20155244 0.05252511
0.0076104873 0.050428774 0.004882908 0.01821787 0.0021606723 0.011019659 0.117798135 0.007927374
0.07173788 0.016272165 0.02401568 0.020020744 0.012235681 0.05332995 0.0140770795 0.055420335
0.06239357 0.080442026 0.08659607 0.016113093 0.010163459 0.003578333 0.07674251 0.012873102
0.0030322988 0.014071182 0.025833204 0.08119642 0.012272781 0.028048987 0.003282304 0.017224787
0.061770797 0.05012591 0.091231465 0.0120882 0.12575455 0.018747592 0.024677755 0.009591578
0.012843495 0.054607272 0.046221416 0.07007681 0.001857154 0.034747746 0.03763749 0.095750995
0.0060001793 0.061387874 0.007499901 0.044680018 0.11904987 0.013360771 0.019944988 0.0072918194
0.011504599 0.06514009 0.011956498 0.036396127 0.04103658 0.004081011 0.056438614 0.00818316
0.035778504 -0.030683896 -0.035099976 -0.035679 -0.086314246 -0.08232397 0.056402218 -0.094229445
-0.043043457 0.06901106 0.028281836 0.028275652 0.11616259 0.082799666 -0.036223 -0.026721371
-0.031902846 0.10708457 -0.10012139 -0.033999234 -0.036871515 -0.09673251 -0.058852598 0.073690854
-0.07666759 -0.04860561 0.08163721 0.04299062 -0.07490794 -0.03190526 -0.0394064 -0.09530083
0.089701034 0.09121868 -0.07648648 0.044068925 0.077969864 0.031084185 0.03601683 0.08858335
0.03460603 0.09074898 -0.12425206 0.02967378 -0.10408146 -0.028424436 -0.03578525 -0.049026906
-0.07158149 -0.030566327 0.116235204 -0.043459482 0.02648559 -0.0334403 0.032078974 -0.031211575
-0.044277094 0.025631728 0.03598616 0.03530848 0.030305121 0.07206424 0.028338278 0.05229866
0.05484615 0.11784843 0.054256093 0.043782733 0.08343935 0.09889674 0.059506133 0.06171001
0.20956258 0.06940717 0.04391528 0.055449244 0.068266384 0.060716815 0.041962896 0.25969785
0.20713615 0.056703527 0.07899584 0.046735052 0.059858676 0.104846865 0.0663909 0.17381254
0.06729123 0.16302516 0.11031709 0.067465626 0.06398604 0.062166065 0.053069584 0.06785664
0.060064863 0.07657742 0.06761274 0.066936225 0.070422 0.055714205 0.095001176 0.13565841
0.06057969 0.20358296 0.0815014 0.22180757 0.09721226 0.12299109 0.052444626 0.17781681
0.098192446 0.15361463 0.19320135 0.10904603 0.056546938 0.040866703 0.044128265 0.037248574
0.04581947 0.21258941 0.08511314 0.052745376 0.03901077 0.04586485 0.06137351 0.05363375
00000000: dd12 023e fdeb ae3d 439b 5b3d 3337 653d
00000010: 659d 743d 1203 933d 7f9f 5f3d 2e2e 973d
00000020: a019 8b3d 389e 0c3e 6557 7c3d 746d 6c3d
00000030: f88e 813d a775 a23d 5b5d 5b3d 7dfd 633d
00000040: d3cb 853d 8274 413e c6d1 523e b4c7 e53d
00000050: e3af 583d fb64 813d a7d2 063e e611 7a3d
00000060: ef8e a13d 5e4a 563d 9419 633d c8d5 803d
00000070: a496 963d 38fa 613d a103 623d 953d 0d3e
00000080: d319 9a3d 1a92 7f3d 6ea1 943d fc70 783d
00000090: 9670 473e 39fc ec3d 968f 813d 17b4 843d
000000a0: 4ff1 623d 81d7 c33d f691 823d 7854 623d
000000b0: db3a 993d 19f3 933d ad56 453d 1459 813d
000000c0: 2661 9b3d 91bf 793d 57c9 703d cb9a b03d
000000d0: a009 5a3d 84bc 343d 9e53 563d 8a1f 633d
000000e0: 8f6c be3d 9c37 6b3d c581 573d 9172 5f3d
000000f0: 71a5 4c3d 2058 103e c363 4e3e 9224 573d
00000100: 6561 f93b 678e 4e3d cd00 a03b a43d 953c
00000110: 119a 0d3b cd8b 343c 2640 f13d d1e1 013c
00000120: 4feb 923d 344d 853c 88bc c43c 8b02 a43c
00000130: 2a78 483c 8170 5a3d 8da3 663c 6f00 633d
00000140: 6690 7f3d cabe a43d 4859 b13d 9bff 833c
00000150: a384 263c 7782 6a3b 2d2b 9d3d b4e9 523c
00000160: 88b9 463b d18a 663c 28a0 d33c 4f4a a63d
00000170: c613 493c fdc6 e53c ec1b 573b ff1a 8d3c
00000180: 6003 7d3d d450 4d3d 90d7 ba3d 960d 463c
00000190: cdc5 003e 8d94 993c 0129 ca3c fe25 1d3c
000001a0: 866d 523c e0ab 5f3d ab52 3d3d 6e84 8f3d
000001b0: bf6b f33a a753 0e3d c529 1a3d 1919 c43d
000001c0: 279d c43b da71 7b3d bbc1 f53b 6502 373d
000001d0: 6bd0 f33d 23e7 5a3c ac63 a33c 37f0 ee3b
000001e0: c97d 3c3c 2b68 853d 30e5 433c 1b14 153d
000001f0: f915 283d 00ba 853b 2d2c 673d a912 063c
00000200: 7b8c 123d cb5c fbbc fec4 0fbd 2524 12bd
00000210: 86c5 b0bd 7899 a8bd 0306 673d 5efb c0bd
00000220: 564e 30bd ac55 8d3d 4faf e73c 57a2 e73c
00000230: a7e6 ed3d df92 a93d 925e 14bd c7e6 dabc
00000240: 8fac 02bd 284f db3d 710c cdbd c842 0bbd
00000250: 9606 17bd b21b c6bd 6c0f 71bd 3beb 963d
00000260: e603 9dbd ad16 47bd 6931 a73d ef16 303d
00000270: 5669 99bd 17af 02bd 9b68 21bd 152d c3bd
00000280: 2db5 b73d dcd0 ba3d f2a4 9cbd 9e81 343d
00000290: aaae 9f3d 43a4 fe3c 6286 133d 306b b53d
000002a0: 0dbf 0d3d 9ada b93d dd77 febd 6d16 f33c
000002b0: a928 d5bd 5dda e8bc 8e93 12bd 70d0 48bd
000002c0: 5199 92bd 3c66 fabc b90c ee3d 9202 32bd
000002d0: 4ff8 d83c b2f8 08bd 3e65 033d 6baf ffbc
000002e0: e65b 35bd a1f9 d13c 3966 133d a09f 103d
000002f0: 7242 f83c 6b96 933d ad25 e83c 1f37 563d
00000300: 5ba6 603d 855a f13d a33b 5e3d 8655 333d
00000310: 40e2 aa3d 608a ca3d b4bc 733d a3c3 7c3d
00000320: 9397 563e 5925 8e3d 82e0 333d bf1e 633d
00000330: 3fcf 8b3d 32b2 783d 49e1 2b3d 1ef7 843e
00000340: 801b 543e f541 683d 92c8 a13d 416d 3f3d
00000350: 5f2e 753d f4b9 d63d f4f7 873d eafb 313e
00000360: fccf 893d 11f0 263e eded e13d 6b2b 8a3d
00000370: 1d0b 833d d8a1 7e3d 7e5f 593d 6cf8 8a3d
00000380: 9306 763d 9fd4 9c3d 8c78 8a3d dc15 893d
00000390: 6939 903d 9434 643d fa8f c23d 0aea 0a3e
000003a0: 6922 783d 0d78 503e 35ea a63d 8621 633e
000003b0: 3917 c73d c1e2 fb3d 2dd0 563d 9c15 363e
000003c0: 1f19 c93d 274d 1d3e 93d6 453e 8653 df3d
000003d0: c39d 673d d863 273d d7bf 343d f691 183d
000003e0: 32ad 3b3d 0ab1 593e cc4f ae3d 890b 583d
000003f0: c2c9 1f3d c8dc 3b3d ca62 7b3d 10af 5b3d

lstm.weight_hh_l0 f4 [256, 64]
-0.40089744 0.98566276 0.74616325 0.693819 0.38031954 0.30577877 0.027045833 0.82877094
0.029832423 -0.7032713 -0.52386796 0.2889907 -0.9916206 -0.9077507 0.9246987 0.10035095
0.050627653 -0.953011 0.89515185 0.30934286 -0.4015489 0.74420553 1.1318858 -0.73715234
0.5378937 0.52208006 -0.7602848 0.23295996 0.80172336 1.2793893 1.260709 0.8993906
-0.686238 -1.2173505 0.9490072 -0.8916113 0.17882454 -0.7776961 -0.73982036 -0.8685662
-0.6517702 -0.95442915 0.87351996 -0.462788 0.68542624 0.3460227 0.8166652 0.028463483
0.6405117 0.32408285 -0.9339871 0.6124656 -0.24547061 -0.34673333 -0.36414695 0.62947524
0.3965729 -0.56542164 -0.26727104 -0.8128954 -0.23114152 -0.5849118 -0.16875435 -0.93089116
0.012751487 -0.10260223 -0.12275109 -0.058766175 -0.20500304 0.039579075 0.24975033 -0.17132506
-0.14005068 0.08334988 0.22110097 0.23010282 -0.053428464 0.0018801205 -0.20633452 -0.10574222
-0.013723556 0.10658146 -0.120323084 0.08029258 -0.19513845 0.044471394 -0.3019922 0.12666745
0.013905873 -0.12150606 0.06642386 0.105564445 -0.028601544 -0.37624434 -0.36036894 -0.063692234
0.13925974 0.37544674 -0.11489533 0.087664545 -0.01817075 0.12205166 0.089576505 0.056059256
0.15022442 -0.09338611 0.0073418217 -0.043751076 0.09707561 0.01643754 -0.31630436 0.016078863
-0.06182367 0.024527006 -0.08957515 0.06345531 0.0049375305 -0.029543808 0.14549308 -0.26455304
-0.0016144064 -0.080604784 0.306989 0.111567326 0.18849465 -0.107395105 0.14066646 -0.08044251
0.07077443 0.07048951 -0.06848553 -0.04350766 -0.13777518 -0.12164994 0.12282462 -0.2713893
-0.038095135 -0.070317745 0.20042783 0.18615672 0.0041202013 0.08111642 -0.27414274 -0.042422123
0.04776993 -0.06336326 -0.0905199 -0.04567894 -0.30041325 -0.11685127 -0.38112736 0.005200998
-0.10531824 -0.07616645 0.101123355 0.29289716 -0.11868142 -0.53769976 -0.60766095 -0.042916086
0.015702732 0.38359857 -0.18065499 0.055446815 0.22709101 0.098107934 0.18452697 0.2633866
0.13095145 0.095844775 -0.11192783 0.14228751 -0.04846213 -0.09013943 -0.46748063 0.042877838
-0.11864109 0.03294563 0.12356049 0.018311819 0.0008280107 -0.046024315 0.12161908 -0.22844486
-0.01767099 0.09997011 0.09149454 0.106385335 0.004423155 -0.029285366 0.24014309 0.08375445
0.09210139 -0.040575553 0.037513066 -0.12939031 0.0014242698 0.06447174 0.21130843 -0.07815976
-0.08439008 -0.062037487 0.15295105 0.08744163 0.04662214 -0.01615009 -0.196948 -0.08659147
0.058671378 -0.03053944 -0.20068769 0.10870154 -0.3700423 -0.14003749 -0.32763186 -0.0079130065
0.014982415 0.008427634 -0.06915473 0.15721807 -0.026089272 -0.25535828 -0.39778137 -0.14592646
0.08548582 0.4434935 -0.049446937 -0.034266535 0.10907843 0.29720035 0.07683562 0.24928938
0.17339765 -0.04976479 -0.15516677 0.123696715 -0.14114492 0.025551006 -0.36259505 0.06901339
8.9573245e-05 -0.14606245 0.13227145 0.01350668 0.0027321354 -0.07587042 -0.014390014 -0.21962447
0.07807128 0.13135834 0.08036159 0.15831327 -0.025262324 -0.020091081 0.19878218 0.11099836
00000000: 6e42 cdbe 6554 7c3f 8e04 3f3f 1f9e 313f
00000010: 3eb9 c23e 098f 9c3e 398f dd3c 552a 543f
00000020: 2063 f43c 9709 34bf 361c 06bf 97f6 933e
00000030: d9da 7dbf 5a62 68bf 0eb9 6c3f cd84 cd3d
00000040: f15e 4f3d 87f8 73bf ac28 653f 3062 9e3e
00000050: d197 cdbe 4184 3e3f a2e1 903f 04b6 3cbf
00000060: 67b3 093f 0aa7 053f 06a2 42bf 0e8d 6e3e
00000070: be3d 4d3f 07c3 a33f ea5e a13f 763e 663f
00000080: 4bad 2fbf 24d2 9bbf 23f2 723f a340 64bf
00000090: c81d 373e 1717 47bf de64 3dbf 5b5a 5ebf
000000a0: 69da 26bf 7855 74bf 019f 5f3f 8cf2 ecbe
000000b0: 1878 2f3f e329 b13e f810 513f 402c e93c
000000c0: 93f8 233f 30ee a53e c719 6fbf 8cca 1c3f
000000d0: a65c 7bbe 0887 b1be 7871 babe 4a25 213f
000000e0: 9a0b cb3e 79bf 10bf c0d7 88be ea19 50bf
000000f0: 5db0 6cbe c8bc 15bf f1cd 2cbe e24e 6ebf
00000100: 9deb 503c 1e21 d2bd ec64 fbbd cdb4 70bd
00000110: 51ec 51be ab1d 223d 8dbe 7f3e d66f 2fbe
00000120: 7269 0fbe 58b3 aa3d 4b68 623e 13a0 6b3e
00000130: ced7 5abd 606e f63a 5b49 53be 618f d8bd
00000140: c4d8 60bc 6147 da3d f36b f6bd 7070 a43d
00000150: 60d2 47be a327 363d b99e 9abe 1db5 013e
00000160: 75d5 633c 2bd8 f8bd 3c09 883d 2c32 d83d
00000170: c94d eabc 19a3 c0be 4782 b8be 1371 82bd
00000180: 1b9a 0e3e 8e3a c03e 3e4e ebbd 7889 b33d
00000190: d3da 94bc 39f6 f93d e373 b73d 649e 653d
000001a0: 6ed4 193e 3841 bfbd aa93 f03b 5434 33bd
000001b0: 94cf c63d 05a8 863c a5f2 a1be d2b7 833c
000001c0: d13a 7dbd dcec c83c 2d73 b7bd dcf4 813d
000001d0: 02cb a13b db05 f2bc 23fc 143e 7f73 87be
000001e0: 7d9a d3ba 1f14 a5bd aa2d 9d3e 697d e43d
000001f0: be04 413e f7f1 dbbd de0a 103e 0bbf a4bd
00000200: 2ff2 903d ce5c 903d 2442 8cbd 1735 32bd
00000210: f014 0dbe 9b23 f9bd 798b fb3d 8af3 8abe
00000220: a509 1cbd c002 90bd f43c 4d3e de9f 3e3e
00000230: c102 873b 5e20 a63d 705c 8cbe d2c2 2dbd
00000240: 67aa 433d 99c4 81bd 7f62 b9bd d719 3bbd
00000250: c4cf 99be b84f efbd 2023 c3be 226d aa3b
00000260: 17b1 d7bd 28fd 9bbd c319 cf3d 9ef6 953e
00000270: 3f0f f3bd b1a6 09bf ab8f 1bbf c7c8 2fbd
00000280: 04a3 803c 0867 c43e 9ffd 38be 331c 633d
00000290: 8c8a 683e d0ec c83d a3f4 3c3e 9cda 863e
000002a0: 2318 063e 444a c43d 6b3a e5bd d1b3 113e
000002b0: 3a80 46bd 059b b8bd 9f59 efbe aca0 2f3d
000002c0: 1afa f2bd fff1 063d 480d fd3d ab02 963c
000002d0: dc0e 593a fe83 3cbd 6d13 f93d 73ed 69be
000002e0: c1c2 90bc 21bd cc3d 7d61 bb3d 8ee0 d93d
000002f0: 1df0 903b dde7 efbc 12e8 753e 7487 ab3d
00000300: a79f bc3d 8d32 26bd 4da7 193d e57e 04be
00000310: 90ae ba3a c209 843d 3d61 583e 3912 a0bd
00000320: b5d4 acbd 051b 7ebd 339f 1c3e 9914 b33d
00000330: dbf6 3e3d 324d 84bc bdac 49be de56 b1bd
00000340: 6651 703d d92d fabc 1381 4dbe ea9e de3d
00000350: 2f76 bdbe fd65 0fbe 5dbf a7be 8ea5 01bc
00000360: ce78 753c 0f14 0a3c ffa0 8dbd c6fd 203e
00000370: 2bb9 d5bc 52be 82be 00aa cbbe bf6d 15be
00000380: 3113 af3d 9411 e33e df88 4abd 115b 0cbd
00000390: 8364 df3d a52a 983e fe5b 9d3d b745 7f3e
000003a0: 278f 313e 2ad6 4bbd 0ae4 1ebe b454 fd3d
000003b0: 4b88 10be 5850 d13c 0fa6 b9be e456 8d3d
000003c0: 45d9 bb38 6591 15be 2b72 073e 1f4b 5d3c
000003d0: a00d 333b f361 9bbd 18c4 6bbc 3de5 60be
000003e0: d6e3 9f3d cd82 063e 9e94 a43d e01c 223e
000003f0: eff2 cebc 0d96 a4bc 8e8d 4b3e 1c53 e33d

lstm.bias_ih_l0 f4 [256]
-0.99234664 0.08801412 0.0617602 -0.016038587 0.26012233 -2.2516985 -1.6587428 -2.4983675
0.18281777 0.22599536 0.19741806 -1.1812873 0.06648882 0.18326753 0.046618782 0.18898734
0.13605604 -0.26826063 -0.5707105 -1.0781887 -1.5912539 0.034733932 0.18204072 0.19112468
-2.188386 0.0175946 0.1526241 0.119411856 -2.0326405 0.053015634 0.29934093 0.22296384
-2.570772 0.09835574 -2.4652977 0.14274415 0.14609194 -1.5317795 0.20037632 0.22826862
-1.4753582 -1.0407788 0.17518356 0.2645798 -2.790577 -1.8505732 0.17112313 -1.756489
-2.2863796 0.102977216 0.08951544 -1.2519745 0.119726144 -0.027170416 0.19752538 0.17054364
-2.733902 0.17465875 0.13637021 0.02583385 0.032655064 0.20869628 0.04801653 -0.018504126
0.11096627 0.0021443919 -0.03456565 -0.33766034 0.04813967 0.110457405 -1.0390093 0.054879297
-0.54399025 -0.043650895 0.06963639 -0.13716377 0.014767009 0.14861667 -0.14259285 -0.6810465
-0.3886258 -0.046691157 0.11056937 -0.036438722 -0.33488354 0.072628 -0.3407867 0.17095064
0.14234833 0.1498676 -0.028638842 -0.5246289 0.046303894 -0.02032089 -0.049462337 -0.043292787
0.07262519 -0.056991056 -0.022153081 0.002809359 -1.1393552 0.10160064 -0.03255632 0.005674751
-0.25489545 -0.4759456 0.008519535 -0.41561815 0.009721373 -0.11300224 0.066898614 -0.93994004
0.018334793 -0.41366836 0.23395391 -0.22132872 0.15417035 0.00732927 0.102228224 0.11934529
0.08824885 -0.33256984 0.031300787 0.18956625 0.10372813 0.14743179 -0.3397892 0.13678348
-2.0346634 -0.09748747 3.6295056 2.8589423 1.0205982 0.84051937 -0.895327 0.32654193
0.37466973 -0.03216152 -1.6290363 -1.8179231 -0.30543762 -0.018049208 3.7488365 0.90370965
0.39106664 -0.01737309 0.04533778 1.9416775 3.884388 0.32597616 0.20339705 0.015725126
-0.057769667 1.9334335 0.11801701 -0.64630103 0.054126233 2.5196574 2.0712762 0.15953669
0.013401669 -0.2632612 -0.16779631 0.23299827 -0.96984345 -2.0899086 -0.60641104 -0.09842646
-3.5518842 -0.014397535 0.95357144 -0.35800412 -0.064819746 0.80665505 3.6482544 0.51645577
-0.018492032 -0.017165434 -0.44475484 0.017213982 -1.2854284 3.301635 -2.5440814 2.5501518
1.7306352 -0.054915514 -3.1844084 -3.5746188 -2.3269365 -0.044959515 -8.823596e-05 -1.3625195
0.17101751 -0.11035397 0.15531594 -0.24182943 0.1903186 -0.12755188 0.24519566 0.080198124
0.06027629 -0.079395786 -0.6990135 0.17930907 0.13756993 0.24448171 -0.6435498 -0.13558553
-0.70529425 -0.043449484 0.12834287 -0.37964377 0.041324824 -0.5389296 0.20764196 0.10058929
0.026293663 -0.66027343 -0.327445 0.16980797 0.07946361 -1.1371518 -1.5953037 0.2542656
0.20795554 -0.1963587 0.013195971 -0.39495656 0.21803986 0.100706436 -0.4235811 -0.4899984
0.16719346 -0.8061442 -0.3188837 -0.057811633 0.004382535 -0.65516394 0.23979154 0.024860436
-0.2727951 0.017718455 -0.08071823 0.08754376 0.042272948 0.026196713 -0.23550472 -0.37510997
-0.19133218 -0.19762033 -0.43546963 -0.27425417 -0.12523024 -0.39795354 0.2446609 -0.028207244
00000000: 6e0a 7ebf bf40 b43d 43f8 7c3d 5b63 83bc
00000010: c12e 853e d41b 10c0 af51 d4bf 41e5 1fc0
00000020: 9534 3b3e 546b 673e f627 4a3e 6c34 97bf
00000030: 4a2b 883d 7caa 3b3e 56f3 3e3d e685 413e
00000040: 4652 0b3e 7559 89be 151a 12bf 1602 8abf
00000050: 35ae cbbf 2b45 0e3d e268 3a3e 30b6 433e
00000060: 840e 0cc0 8d22 903c 7e49 1c3e 348e f43d
00000070: c816 02c0 ec26 593d 3743 993e a250 643e
00000080: 8787 24c0 bc6e c93d 70c7 1dc0 862b 123e
00000090: 2099 153e 5a11 c4bf 732f 4d3e 40bf 693e
000000a0: 8ad8 bcbf 3d38 85bf 5263 333e 0177 873e
000000b0: d098 32c0 95df ecbf e73a 2f3e a2d4 e0bf
000000c0: 0b54 12c0 b8e5 d23d df53 b73d b340 a0bf
000000d0: fb32 f53d 7e94 debc 1844 4a3e fea2 2e3e
000000e0: 40f8 2ec0 bed9 323e a2a4 0b3e 83a1 d33c
000000f0: 51c1 053d 7ab4 553e fbac 443d f795 97bc
00000100: 4942 e33d ed88 0c3b b694 0dbd d1e1 acbe
00000110: 1a2e 453d 7e37 e23d 42fe 84bf 1dc9 603d
00000120: f242 0bbf 48cb 32bd 869d 8e3d a974 0cbe
00000130: 53f1 713c f82e 183e dc03 12be 1059 2ebf
00000140: f6f9 c6be 3a3f 3fbd 3272 e23d c540 15bd
00000150: db75 abbe fdbd 943d 987b aebe af0d 2f3e
00000160: c3c3 113e e476 193e 019c eabc 144e 06bf
00000170: 27a9 3d3d ff77 a6bc 0599 4abd c753 31bd
00000180: 84bc 943d 746f 69bd 617a b5bc 391d 383b
00000190: 64d6 91bf ff13 d03d c759 05bd 43f3 b93b
000001a0: a881 82be 24af f3be 8595 0b3c e7cb d4be
000001b0: 6546 1f3c b86d e7bd 2402 893d e99f 70bf
000001c0: d932 963c 57cc d3be 9d91 6f3e ffa3 62be
000001d0: d5de 1d3e 5f2a f03b 085d d13d 4e6b f43d
000001e0: d0bb b43d 9846 aabe 4135 003d a81d 423e
000001f0: 6a6f d43d 5cf8 163e daf8 adbe f810 0c3e
00000200: ed37 02c0 83a7 c7bd d249 6840 e9f8 3640
00000210: f6a2 823f 472c 573f 2634 65bf 8130 a73e
00000220: b6d4 bf3e ccbb 03bd 4384 d0bf b4b1 e8bf
00000230: 5262 9cbe efdb 93bc f0ec 6f40 8459 673f
00000240: e339 c83e 0352 8ebc 1cb4 393d e388 f83f
00000250: d099 7840 59e6 a63e 5147 503e fbd1 803c
00000260: e39f 6cbd c07a f73f e7b2 f13d fc73 25bf
00000270: 78b3 5d3d 1142 2140 ca8f 0440 965d 233e
00000280: ad92 5b3c 2cca 86be ccd2 2bbe 1997 6e3e
00000290: a947 78bf 10c1 05c0 c13d 1bbf d093 c9bd
000002a0: 1252 63c0 a3e3 6bbc 421d 743f 514c b7be
000002b0: 37c0 84bd f280 4e3f 007d 6940 7236 043f
000002c0: 9a7c 97bc 869e 8cbc e8b6 e3be 5604 8d3c
000002d0: eb88 a4bf fd4d 5340 3bd2 22c0 b035 2340
000002e0: 7485 dd3f 17ef 60bd 59cd 4bc0 8ec6 64c0
000002f0: 87ec 14c0 7827 38bd 520b b9b8 0a67 aebf
00000300: 371f 2f3e 4301 e2bd 240b 1f3e 22a2 77be
00000310: e1e2 423e f69c 02be 9214 7b3e ea3e a43d
00000320: 45e4 763d 429a a2bd 8cf2 32bf cc9c 373e
00000330: 22df 0c3e 6a59 7a3e aebf 24bf efd6 0abe
00000340: 2a8e 34bf 16f8 31bd 506c 033e ab60 c2be
00000350: 3844 293d 4af7 09bf 18a0 543e c201 ce3d
00000360: cf65 d73c ae07 29bf dfa6 a7be 24e2 2d3e
00000370: d1bd a23d 318e 91bf e932 ccbf 1a2f 823e
00000380: 4cf2 543e 4112 49be ea33 583c bf37 cabe
00000390: d745 5f3e 2d3f ce3d 9fdf d8be 12e1 fabe
000003a0: c334 2b3e 775f 4ebf b944 a3be e4cb 6cbd
000003b0: 5e9b 8f3b d3b8 27bf ea8b 753e 1da8 cb3c
000003c0: cdab 8bbe 4b26 913c 994f a5bd 254a b33d
000003d0: 6626 2d3d 7d9a d63c 2628 71be 6a0e c0be
000003e0: 95ec 43be fc5c 4abe e0f5 debe 0b6b 8cbe
000003f0: 5b3c 00be 91c0 cbbe 6388 7a3e e112 e7bc

lstm.bias_hh_l0 f4 [256]
-0.9934014 0.03512682 -0.047273133 0.1476867 0.13871986 -2.2121944 -1.6119739 -2.6070254
0.16415055 0.1810913 0.054831214 -1.065182 0.13085197 0.25041267 0.10919036 0.21770543
0.16655417 -0.25096256 -0.42137742 -1.0710052 -1.4880699 -0.0047644596 0.23499916 0.23827274
-2.201096 0.12960556 0.15254122 0.21124956 -2.1624987 0.24448416 0.20745237 0.2677614
-2.6732953 0.08143133 -2.5377188 0.072448775 0.1284225 -1.4731486 0.066320285 0.1982683
-1.6857737 -0.97084695 0.16269423 0.09832848 -2.6434221 -1.8332889 0.16437997 -1.7079347
-2.1865108 0.008750381 0.09848533 -1.353614 0.20932089 0.043806598 0.105572104 0.13224807
-2.67235 0.1450054 0.044659127 0.10262643 0.18322492 0.04288014 -0.007329246 0.034532227
0.09590898 0.07420419 -0.19373353 -0.14321403 -0.059464484 -0.0002273967 -0.9676251 0.16012138
-0.5601669 0.16175671 0.038680676 -0.21800944 0.21672253 -0.066894256 -0.24219325 -0.6843925
-0.2896322 0.112175144 0.17116705 -0.027944382 -0.4430871 -0.00958376 -0.2652167 0.115433685
-0.061413825 0.14270154 0.040601432 -0.7081008 0.14232604 0.17114939 -0.03360035 0.10273163
0.19356187 0.099580735 0.0031220631 -0.015517244 -1.3341213 -0.01157376 -0.1946559 0.009997227
-0.22869734 -0.6326329 -0.020242501 -0.52179295 0.19761157 -0.25071546 -0.05272611 -0.81486636
0.0913142 -0.25170413 0.16703238 -0.21028438 0.075144604 0.1913572 0.1262951 0.06529816
0.13704085 -0.3654304 0.11150404 0.17218956 0.1421598 0.08575393 -0.26257718 0.19086431
-2.1358037 0.043979622 3.6431842 2.822101 1.030132 0.70880544 -0.7396815 0.4198369
0.17958306 0.075070724 -1.5360386 -1.6925812 -0.4515077 0.023696357 3.679776 0.710969
0.4739379 -0.018951764 -0.12789705 1.7949156 3.7508614 0.3502145 0.2002754 -0.007329497
0.05797961 2.067173 0.0813409 -0.59551996 0.015704686 2.4580944 2.0755868 0.23586531
-0.004696885 -0.27126923 -0.20312004 0.035241142 -0.9819917 -2.051563 -0.6896524 -0.12392038
-3.472202 0.14291085 1.1012653 -0.26985195 -0.026384166 0.63814473 3.6847672 0.6334268
-0.0191531 0.17581281 -0.2882856 -0.020191126 -1.3157047 3.36811 -2.357978 2.5271406
1.7803626 -0.074827455 -3.1268988 -3.5299027 -2.2360637 -0.07466403 -0.10549476 -1.4641263
0.12133018 -0.227683 0.06496018 -0.22995618 0.028901076 -0.11927947 0.08668427 0.17642307
0.034581676 -0.14489295 -0.6480865 0.07988748 0.20966187 0.027586795 -0.42602408 -0.17757413
-0.70091206 -0.08844707 0.18685372 -0.38438687 0.15872039 -0.44180447 0.28728816 -0.02720422
0.15017317 -0.79861414 -0.23652852 0.262716 0.14903347 -1.2189041 -1.6503906 0.1772518
0.07289154 -0.19413617 0.17965549 -0.20632514 0.06009919 0.1373879 -0.28436947 -0.5385831
0.15162213 -0.91444284 -0.28933042 -0.17540231 0.058040928 -0.6476595 0.0831234 -0.12903497
-0.4090158 -0.032973662 -0.12597892 0.17038369 -0.005097851 -0.15773982 -0.29524204 -0.5153414
-0.1407263 1.533749e-05 -0.36963624 -0.20708634 -0.21246885 -0.19498311 0.27883577 -0.21574438
00000000: 8e4f 7ebf 24e1 0f3d 79a1 41bd 2f3b 173e
00000010: 940c 0e3e 9894 0dc0 2955 cebf 81d9 26c0
00000020: 1517 283e ff6f 393e b296 603d e257 88bf
00000030: 0ffe 053e 1736 803e 329f df3d 2cee 5e3e
00000040: 2d8d 2a3e 2a7e 80be c8be d7be b316 89bf
00000050: 1379 bebf 2f1f 9cbb 9fa3 703e c5fd 733e
00000060: c2de 0cc0 52b7 043e c433 1c3e ce51 583e
00000070: 6166 0ac0 0e5a 7a3e 656e 543e 0618 893e
00000080: 4517 2bc0 78c5 a63d fc69 22c0 0660 943d
00000090: 3081 033e 2290 bcbf eed2 873d d806 4b3e
000000a0: 6fc7 d7bf 6d89 78bf 5199 263e 7160 c93d
000000b0: d42d 29c0 36a9 eabf 3953 283e 9b9d dabf
000000c0: cbef 0bc0 c25d 0f3c adb2 c93d 3943 adbf
000000d0: 3758 563e 8c6e 333d 3036 d83d 0a6c 073e
000000e0: c807 2bc0 4c7c 143e 7dec 363d ce2d d23d
000000f0: 509f 3b3e 16a3 2f3d 2c2a f0bb aa71 0d3d
00000100: ed6b c43d 5ef8 973d 1562 46be b3a6 12be
00000110: 0891 73bd 5671 6eb9 47b6 77bf dcf6 233e
00000120: 1967 0fbf 8da3 253e a16f 1e3d de3d 5fbe
00000130: 83ec 5d3e dbff 88bd 8201 78be 5934 2fbf
00000140: ac4a 94be 15bc e53d 6a46 2f3e 9eeb e4bc
00000150: 50dc e2be 3405 1dbc 7cca 87be 7f68 ec3d
00000160: 108d 7bbd 5a20 123e b04d 263d 1846 35bf
00000170: ebbd 113e c941 2f3e 85a0 09bd f664 d23d
00000180: 1535 463e fcf0 cb3d 879b 4c3b 0a3c 7ebc
00000190: 7dc4 aabf de9f 3dbc e053 47be 69cb 233c
000001a0: a32f 6abe 3bf4 21bf 9ad3 a5bc 3994 05bf
000001b0: b05a 4a3e c75d 80be 55f7 57bd 159b 50bf
000001c0: f002 bb3d 5ddf 80be 890a 2b3e ca54 57be
000001d0: 6ae5 993d 24f3 433e 8153 013e 0bbb 853d
000001e0: 7054 0c3e b219 bbbe 3b5c e43d 7652 303e
000001f0: 5792 113e c29f af3d 8470 86be ef71 433e
00000200: 02b1 08c0 fa23 343d ee29 6940 4e9d 3440
00000210: 5edb 833f 4674 353f c45b 3dbf ddf4 d63e
00000220: 9fe4 373e aebe 993d ea9c c4bf 80a6 d8bf
00000230: 042c e7be dd1e c23c 7381 6b40 1002 363f
00000240: fda7 f23e bb40 9bbc 72f7 02be cbbf e53f
00000250: 1d0e 7040 514f b33e ff14 4d3e 472c f0bb
00000260: 077c 6d3d 904c 0440 0f96 a63d ff73 18bf
00000270: 1da7 803c 6b51 1d40 6ad6 0440 ad86 713e
00000280: 54e8 99bb cde3 8abe b3fe 4fbe 0459 103d
00000290: cf63 7bbf cf4c 03c0 0f8d 30bf f8c9 fdbd
000002a0: 8f38 5ec0 3957 123e 43f6 8c3f 092a 8abe
000002b0: 9b23 d8bc 745d 233f 3ad3 6b40 4228 223f
000002c0: f6e6 9cbc 4608 343e 2c9a 93be dc67 a5bc
000002d0: 0369 a8bf 1d8f 5740 1de9 16c0 acbc 2140
000002e0: ece2 e33f 233f 99bd 1c1f 48c0 ede9 61c0
000002f0: ab1b 0fc0 74e9 98bd a30d d8bd 7e68 bbbf
00000300: f57b f83d bb25 69be d809 853d a279 6bbe
00000310: f3c1 ec3c cb48 f4bd 8687 b13d 40a8 343e
00000320: 84a5 0d3d d15e 14be ffe8 25bf 0c9c a33d
00000330: 9ab1 563e b4fd e13c d41f dabe fed5 35be
00000340: f96e 33bf bd23 b5bd 9556 3f3e 5bce c4be
00000350: 9987 223e 3234 e2be 6f17 933e 62db debc
00000360: ffc6 193e fa71 4cbf 8834 72be b682 863e
00000370: 3b9c 183e 0d05 9cbf 0040 d3bf 7f81 353e
00000380: 2948 953d a2cb 46be 9cf7 373e e646 53be
00000390: 912a 763d 6aaf 0c3e e098 91be 95e0 09bf
000003a0: d542 1b3e ed18 6abf 1e23 94be aa9c 33be
000003b0: 53bc 6d3d 03cd 25bf 9a3c aa3d be21 04be
000003c0: 856a d1be 640f 07bd 9e00 01be 1079 2e3e
000003d0: e00b a7bb 8c86 21be f729 97be 6aed 03bf
000003e0: 8e1a 10be 02a9 8037 f640 bdbe 710e 54be
000003f0: 6f91 59be a7a9 47be 90c3 8e3e 18ec 5cbe

linear.weight f4 [1, 64]
4.745496 -4.553493 -4.73446 -4.7745667 -4.6771727 -4.52552 4.772439 -4.7725463
-4.581416 4.5985947 4.6710453 4.7606854 4.784916 4.6916037 -4.8287926 -4.6564646
-4.5739765 4.6083317 -4.6521635 -4.6217275 -4.8042555 -4.6545897 -4.8640313 4.634075
-4.647712 -4.694135 4.6298027 4.7770057 -4.6175356 -4.8329725 -4.8347096 -4.616779
4.6590996 4.875794 -4.6227083 4.6007733 4.7271533 4.795526 4.6845813 4.761118
4.770148 4.4834437 -4.6479783 4.632064 -4.579732 -4.5285273 -4.8510337 -4.5106325
-4.64162 -4.58421 4.7733817 -4.5829887 4.7302456 -4.646525 4.740617 -4.7173343
-4.530949 4.627745 4.6889462 4.70689 4.7184997 4.594649 4.8375845 4.634636
00000000: 1adb 9740 37b6 91c0 b280 97c0 40c9 98c0
00000010: 66ab 95c0 0fd1 90c0 d2b7 9840 b3b8 98c0
00000020: f69a 92c0 b027 9340 3479 9540 8957 9840
00000030: 081e 9940 9e21 9640 7885 9ac0 c201 95c0
00000040: 045e 92c0 7477 9340 86de 94c0 31e5 93c0
00000050: 76bc 99c0 66f2 94c0 25a6 9bc0 584a 9440
00000060: 0fba 94c0 5b36 96c0 5827 9440 3bdd 9840
00000070: dac2 93c0 b6a7 9ac0 f1b5 9ac0 a7bc 93c0
00000080: 5817 9540 8106 9c40 3aed 93c0 8939 9340
00000090: d744 9740 f374 9940 17e8 9540 145b 9840
000000a0: 0da5 9840 5f78 8f40 3dbc 94c0 de39 9440
000000b0: 2a8d 92c0 b2e9 90c0 ab3b 9bc0 1a57 90c0
000000c0: 2788 94c0 d9b1 92c0 8bbf 9840 d8a7 92c0
000000d0: 2c5e 9740 55b0 94c0 22b3 9740 67f4 96c0
000000e0: 89fd 90c0 7d16 9440 d90b 9640 d89e 9640
000000f0: f3fd 9640 5d07 9340 7ecd 9a40 f04e 9440
