models/004-gru.pt (torch, 53527 bytes, 5 tensors)

gru.weight_ih_l0 f4 [192, 1]
00000000: b475 8a3e 78bf 523e bcd4 4bbd 17a6 b53d
00000010: 13f4 0f3d 350c debc 4e24 873d 84ee a43d
00000020: 410c c5bc d535 563c 3768 b23d 8e43 cd3d
00000030: 550a 033d 5bce 533e 7818 d93d 2047 683d
00000040: aff1 7ebc d457 193e a24d 12bd ec75 0d3e
00000050: 1966 a43d 8597 4cbd 9b8f 8b3d f581 de3d
00000060: 3718 383d a843 dc3d e414 87bc 94c6 7bba
00000070: e53d bb3d 8d5e 4c3d 5e57 353d 482b 273e
00000080: b94f 073e c625 393e d5d7 893d 6c04 e23d
00000090: 70a7 8e3e 3dfd 813d b3cc 143e e2a9 3b3d
000000a0: b97b 643d fe81 1b3d 6a14 963d 3e1e 0f3e
000000b0: 0e49 e83d e92c 81bb 3d52 c83d 2739 753d
000000c0: 9ec9 a83c 29eb 5a3d 67fb af3d d8cb cc3d
000000d0: 80f0 38bd 08e5 943d bbcd 263d 3f2c 7bbd
000000e0: 0440 2b3d 3f54 7a3c f392 22bd 8d14 873d
000000f0: efa4 033d c592 e53d 774a b6bd 6e12 413d
00000100: 89bd 6fbd 70ce 08bd 392f 43be 5298 26bd
00000110: 227c 5fbd bfd6 51bd e207 36be 6abd 55bd
00000120: bf18 49be 82b0 16bd a56d 5fbd b383 76bd
00000130: c39d 44bd 105e 59bd 0c8a 55bd 1cbf 68bd
00000140: 48de 1cbd a008 3ebd e5c1 15bd ba05 26bd
00000150: 157a 81bd ca4b c1bd 5b5e 0ebe bdd6 07bd
00000160: 1691 49be 023b 50bd a610 4abd 2915 63bd
00000170: 6b3f 50bd 65e7 73bd a0f6 66bd 210c 6fbd
00000180: 2f19 fdbc 368e 7fbd fc3a 6fbd 23d7 5bbd
00000190: 3fe7 b6bd dab6 5fbd 2d55 dbbc 70c2 93bd
000001a0: 26ef 56bd 7d80 0fbd 13cc 50bd 8e5c 05bd
000001b0: 7f1e 3ebd 3769 6fbd 3c4d 36bd 3414 58bd
000001c0: 443d 25bd bd4a 57bd 9483 52bd 37c5 78bd
000001d0: 40b2 0bbd 334d 51bd a10c 02bd e93d 18bd
000001e0: fb7f 62bd 283a 1dbd 3f85 7dbd 39e9 60bd
000001f0: 451e 60bd 8e9b 67bd e656 44be 0dae 6dbd
00000200: 896b ecbc b558 7cbd d00b af3d b689 e63c
00000210: b995 2a3d 69b2 1d3d 413e e23c 6de2 ae3d
00000220: 73cb cdbd 5fc3 cebc dc34 7cbd 5487 cabc
00000230: 846a 943d a745 793d beaa 23bd a3eb 13bd
00000240: 5f8b 683d 91e3 d6bc 9c6f d63c a4a7 66bd
00000250: 32eb c83c 85bd c03d 9630 f5bc 0479 c43c
00000260: 21cd 563d 041a b6bc e2c6 133d 2f89 b5bd
00000270: 8354 b2bc 557e c4bc 8974 e73c d547 27bd
00000280: 68df 8cbd e114 d9bc 14cf c53c b6ac c03c
00000290: 1734 eb3c 1521 d83c e533 903d 3627 233d
000002a0: 92de fb3c 9420 d4bc d7d6 8ebd ab4d 803d
000002b0: a84c 97bd a005 b43d 6628 b73c 7793 d93c
000002c0: 96ce 1a3d 7e12 c3bc 3389 da3c 5942 e53c
000002d0: bf50 5f3d 5cea d8bc 13f8 7ebd 9865 be3c
000002e0: dc90 d73c d941 013d 91e0 01bd 4535 d73c
000002f0: eeda 3bbd e1db efbc 6eb1 c2bd 493f d1bc
0.27042925 0.20580852 -0.049763426 0.0886957 0.035144877 -0.02710543 0.065987214 0.08053306
-0.024053695 0.013074358 0.08711284 0.10022651 0.031992275 0.20684187 0.1060037 0.056708455
-0.015560552 0.1497491 -0.035718568 0.13814515 0.08027286 -0.049949188 0.068145 0.10864631
0.044944968 0.10755092 -0.016489454 -0.00096044806 0.09142665 0.04989486 0.044272773 0.16325104
0.13214006 0.18080816 0.0673062 0.11036 0.2786212 0.063471295 0.14531212 0.04581631
0.055782054 0.037965767 0.073281124 0.1397638 0.11342059 -0.0039421213 0.09781311 0.059868958
0.020603951 0.053446922 0.08592873 0.099998176 -0.045151234 0.07270247 0.040723544 -0.061321493
0.041809097 0.015278875 -0.039690923 0.065957166 0.032139715 0.11209635 -0.08900922 0.047136717
-0.058530364 -0.0334 -0.19060983 -0.040672608 -0.05456174 -0.05123019 -0.17776445 -0.052182592
-0.19638346 -0.036789425 -0.054547925 -0.060184192 -0.048002016 -0.05306822 -0.052133605 -0.05682288
-0.03829792 -0.046394944 -0.036561865 -0.040532805 -0.063221134 -0.09438284 -0.13903181 -0.033163775
-0.19684252 -0.050837524 -0.049332283 -0.0554401 -0.05084173 -0.059546847 -0.056387544 -0.058361176
-0.030895798 -0.062391482 -0.05840586 -0.053671967 -0.089308254 -0.05461774 -0.026774013 -0.072148204
-0.052474163 -0.035034645 -0.05097587 -0.03255897 -0.046415802 -0.05844995 -0.04450725 -0.052753642
-0.04034163 -0.05256151 -0.051395014 -0.060734954 -0.03410554 -0.051099014 -0.031750325 -0.037168417
-0.055297833 -0.03838554 -0.06189465 -0.05490992 -0.054716367 -0.056544833 -0.19173774 -0.058027316
-0.02885987 -0.061608035 0.08547175 0.028141838 0.041646693 0.038500223 0.027617576 0.08539281
-0.100485705 -0.025239645 -0.061573848 -0.024722733 0.07246879 0.06085744 -0.039957754 -0.036113393
0.05677354 -0.026231559 0.026176266 -0.05631222 0.024526212 0.09411148 -0.029930394 0.023983486
0.05244172 -0.022229202 0.03607834 -0.08864056 -0.021768814 -0.023986021 0.02825381 -0.04083999
-0.06878549 -0.026499214 0.024146594 0.023519855 0.028711362 0.026382962 0.07041148 0.039832316
0.030745778 -0.02589444 -0.06974571 0.06264814 -0.07387668 0.087901354 0.02235813 0.026559575
0.037794672 -0.023812529 0.02667675 0.027985739 0.054520365 -0.026478939 -0.0622483 0.023241803
0.026314192 0.031556938 -0.031708304 0.026270518 -0.045863084 -0.029279651 -0.09506498 -0.025542872

gru.weight_hh_l0 f4 [192, 64]
00000000: 8255 843d ac67 9e3d 83f0 3d3e 226d b13d
00000010: 3702 183e d7e9 3bbe 05ad 793d 7a46 ae3b
00000020: f33e 50be 478e afbd 891a 65be 3f2a 6bbe
00000030: ea12 153b a07a ebbd b406 293d 8042 7abe
00000040: f3a8 aabd 8691 8fbd 0fa0 423e 1ec1 50be
00000050: 3235 c43c 7037 7f3e 5403 d4bd dbec 4cbe
00000060: e989 833e 5397 57bd b787 e33d 1d23 7ebd
00000070: 0919 393d b740 83bd 71d1 463e 29e4 193e
00000080: 3ccc cf3d 7cab 2f3e 1e37 223d e55a 003c
00000090: 408e 36bd 64b2 693d d3e4 1d3d ed5f 8dbd
000000a0: 041d f33d 0139 22be a85d 943d b66e 343b
000000b0: 4101 f93d cbad 153e a058 84bc 135b 423e
000000c0: 350b cd3c 7aee e8bc fec7 cabc bfe8 623e
000000d0: a166 22be 2d9a a3bd 795e d33d 9f37 e83c
000000e0: 7547 593d f8cc 2c3e b16c ef3d edcd 383e
000000f0: 5ee3 02bd b7cd c0bd 4e3a 4fbe a2b2 7fbe
00000100: ada5 94bd 1722 37be d464 4f3d 045c 473e
00000110: 39ea 983d ee34 f1bb b6ed a53c e9ed 2f3e
00000120: bec5 99bd 957c aebe 9e7f 0ebd 5877 58be
00000130: e15a 7f3e 36c9 f7bd a1ee 00bd 4b3c 08bd
00000140: 0c05 553e 9585 01be 0f30 943e d0a1 3cbe
00000150: c2cf c33c 9328 823e 440c b3bd b4ad bc3d
00000160: c1cc 9d3d b1f1 24be 55d7 ec3d cfcf d9bd
00000170: 9686 0dbe 5656 a2bd 127d bc3c 8671 21bd
00000180: 1306 81be d927 0dbe 71b0 173e 724a 3e3e
00000190: 33c6 203b 7cfb 3f3e 400c fd3d 3b6f 413e
000001a0: 1744 0c3e 477a 0bbe 3325 76be b995 713e
000001b0: a01d 29be 5872 013e 78e3 be3c 3f64 513d
000001c0: f17b 8b3e 2ac1 30be a451 6c3e 3256 013e
000001d0: 8b49 dbbd 31a5 69be 3b00 c53d ab92 9a3e
000001e0: ba53 3b3d f56c a03e 2593 29bd 0db2 333e
000001f0: 4885 50be 319b 1cbe ee08 71bd 8e34 83bd
00000200: 14a2 b1bd 357e 98bc 50f6 cbbd 50ba 1f3e
00000210: fc1e 363d d15a b43d ce8a 7bbd e24a 5a3e
00000220: 7969 49bd 56f3 1bbd 5b9e 14be 86c0 ecbb
00000230: 4744 af3d 5442 acbd a20c 50be 97b9 29bd
00000240: d9b6 3ebd a0b4 be3c 4148 50bb 98a6 97bb
00000250: c452 043e 7fb1 c13d a9ef e4bd 0292 ab3c
00000260: dac3 333d 02e2 f0bd d465 783d 7529 3eb9
00000270: f4ef 07be 9ed2 efbd 3318 783e f488 cabd
00000280: 866f 16be 3de9 19be 7a04 913d 8319 0d3e
00000290: ba96 dc38 6d62 37bc 3391 9abd 2b80 de3d
000002a0: 3c9f 073e faa0 84bc 62f9 8cbe d963 c3bd
000002b0: 8a0c d03c 7886 193e 5f42 4d3d da92 333d
000002c0: a049 c1bd 95ce 9fbe e691 2e3e 993f 1d3d
000002d0: fd2d 95bd 9ebb 21bc 66ab 983c 4279 d33d
000002e0: 8422 a33e 688c 543d af5d 043d 14c1 353e
000002f0: 937c ebbc 65f9 53be 4437 e7bd 4675 29be
00000300: 1d5c adbb 4eb7 d2bd f531 05be 9698 f4bd
00000310: 07ec 8f3b ad5b afbd 3926 13bd 147d d33d
00000320: f5cb 0d3e 1d5d 553d 228f a6bd 5d17 9f3d
00000330: 87b2 c03d 4f42 0a3e 3a3f 0cbd 663f 5d3b
00000340: 2058 0ebe 6293 8abd 5fcf fabd acbc 953d
00000350: 3c20 b33c a3aa 9e3d e4cb 1b3d 4a16 373c
00000360: f53b 8bbc b8f0 033d 47d9 9b3d 0e34 3ebd
00000370: 233e 583c 6d89 f6bc e018 673d 9d35 0bbe
00000380: 1654 563d ee53 ecbb 11c0 02be 8462 823d
00000390: 1fd5 14be d38d d83d 3561 e8bc e7f6 153e
000003a0: 5ae2 183e 4913 133d b2e1 463c 4fc0 11bc
000003b0: 2961 0d3d ce8c 053b e58e 0a3e 1588 97bd
000003c0: 2aac 81bd 7733 1fbe ca25 9f3c 45c2 453d
000003d0: 7ed3 06bd c172 7c3d 4b8f e3bc a03a 8f3d
000003e0: c831 f83d b9f9 973d 2d90 debd 6367 7abd
000003f0: 63ea e93c 30b3 aeb8 a6be 4a3c d381 16be
0.06461622 0.077346176 0.18548779 0.086633936 0.14844595 -0.18350922 0.06095602 0.00531846
-0.20336513 -0.08572059 -0.22373404 -0.22965334 0.002274687 -0.11497998 0.04126616 -0.2443943
-0.08333006 -0.07010178 0.1900637 -0.20386168 0.023951147 0.24923491 -0.10352197 -0.20012228
0.25691155 -0.05263455 0.1110987 -0.062045205 0.04518989 -0.06408828 0.19415833 0.15028442
0.101463765 0.1715526 0.039603345 0.007834171 -0.044569254 0.057054892 0.038548302 -0.06903062
0.11870769 -0.15842058 0.07244426 0.002753181 0.12158442 0.14617078 -0.016155541 0.18980055
0.025029758 -0.028434027 -0.024753567 0.22159098 -0.15859462 -0.07988391 0.103207536 0.028346835
0.053046662 0.16875064 0.11690653 0.18047304 -0.031955115 -0.09414237 -0.20237085 -0.24970487
-0.07258163 -0.17884098 0.050633267 0.19468695 0.074665494 -0.007361046 0.020254951 0.171806
-0.075084195 -0.34079424 -0.034789674 -0.21139276 0.24937011 -0.12098925 -0.031477574 -0.033260625
0.20802706 -0.12648614 0.28942916 -0.18421102 0.023902778 0.2542158 -0.08742574 0.09212819
0.07705069 -0.16107823 0.11564509 -0.106353395 -0.13820872 -0.079266235 0.023008857 -0.039414905
-0.25199947 -0.13784732 0.14813401 0.18583086 0.0024532198 0.18748277 0.12355852 0.18890087
0.13697849 -0.13620864 -0.24037628 0.23592271 -0.16515207 0.12641275 0.023301825 0.051120993
0.27242997 -0.17261186 0.23078018 0.12630537 -0.107073866 -0.22816922 0.096191846 0.30190024
0.045734145 0.31333128 -0.041400094 0.1754839 -0.20363343 -0.15293576 -0.058846407 -0.064065084
-0.08673492 -0.018614868 -0.0995909 0.15598416 0.044463143 0.08806384 -0.06141167 0.21317628
-0.049172852 -0.03807386 -0.14513533 -0.007225099 0.08557945 -0.084110886 -0.20317319 -0.041436758
-0.046561096 0.023279488 -0.0031781348 -0.004628014 0.12922198 0.09457683 -0.11178524 0.020943645
0.04388795 -0.117618576 0.060643986 -0.00018135256 -0.13275129 -0.11710094 0.24227981 -0.09889403
-0.1469098 -0.1503038 0.07080932 0.13779263 0.000105184925 -0.0111929 -0.07547226 0.1086429
0.13244337 -0.01619004 -0.27534014 -0.09540529 0.025396604 0.14992702 0.050112125 0.04384122
-0.09437871 -0.31212297 0.17047843 0.03839073 -0.07284162 -0.009871392 0.018636417 0.103258625
0.3186227 0.051891714 0.032315906 0.17749435 -0.028745925 -0.20700605 -0.11289838 -0.16548643
-0.005290522 -0.10288869 -0.13007338 -0.11943166 0.0043921503 -0.08562408 -0.035925124 0.10326591
0.13847335 0.052090753 -0.08132769 0.07768128 0.094090514 0.13501857 -0.034239985 0.0033759712
-0.13900805 -0.06766392 -0.12246584 0.07311377 0.021865956 0.0774739 0.038036242 0.011174748
-0.016996363 0.03221199 0.07609802 -0.046436362 0.013198408 -0.030094827 0.056420207 -0.1359467
0.052326284 -0.0072121536 -0.1276858 0.063664466 -0.14534424 0.10573926 -0.028366664 0.14644967
0.14930096 0.035907064 0.012138771 -0.008895948 0.034516487 0.0020378116 0.13531072 -0.073990025
-0.06331666 -0.15546976 0.019427199 0.048280973 -0.03291654 0.061632875 -0.027778288 0.06993604
0.1211887 0.07420678 -0.10867343 -0.061133754 0.028554147 -8.330343e-05 0.012374556 -0.14697962

gru.bias_ih_l0 f4 [192]
00000000: 28ab 643e 866f 0dbd bbd1 edbd 85d8 423d
00000010: fcfc 303e ac18 3c3e ceb3 123e 9937 a73d
00000020: 7a09 d53c da6f c1bc a82b 3b3e fe85 c2be
00000030: f96a 503d 948b 8fbd 25cd 183d ec59 263e
00000040: da2b a43e 1f15 2a3d 6eeb 6b3e da7b 8d3c
00000050: 8a3f 0ebf ddf1 85be 674b 913c e708 febe
00000060: 91b1 5e3a 802e ecbe 2937 933d e095 b03c
00000070: 1a67 9bbe be4c 49bd 0ba7 04bf d6b6 1dbd
00000080: bcfe 1d3e f623 3b3d c94c 423e c328 f6be
00000090: c05a 113e c2d2 c7be f5b4 41bc 59a1 163e
000000a0: 6f5e a2be d49f e7bc 514f f6bc dae1 a73d
000000b0: add9 c7bd 9077 023d c145 01bf 4450 acbe
000000c0: 3cda 4abe 0265 d7bd 3923 f0be bdfd 11bf
000000d0: 20f9 ae3e 1414 ecbd b920 64bc 5bd3 a8be
000000e0: 8397 b43d 7faa a3bd dfb3 8c3e 297b 22be
000000f0: dd52 dd3d 2003 0bbf ede3 63be 323c 2dbf
00000100: 0c3c 55be 324e 8d3f 7a1e 453f 2b6f a83f
00000110: 09b1 0b3d d70d 87bc 8db6 89bd eef4 2bbe
00000120: 7336 0a3f f987 9a3f 06c9 10be 65dd 443c
00000130: f434 1ebe 9a7d 1abc ee13 833c bbad 50be
00000140: aa5b 7dbd cf99 853f d451 7e3f 39a1 453f
00000150: 8de8 9f3c 0a83 b5bd a8d7 153f 5f0f 81bd
00000160: ae26 ff3e 4af2 05bd 140a 17be c6f3 c13c
00000170: 6041 1abe 7955 e9bd 75eb aabd 49ed 40be
00000180: 0939 553f 7ed8 36bd 5eb9 b53f fd69 a5bd
00000190: 4eaf d53e 304d 0dbe 0e3c d13d fd8a 9dbd
000001a0: b382 e2bd 263c 783f 8ec4 9fbe 0418 4b3f
000001b0: 0168 2dbe f7d9 32be a64d 9d3f 66ee 0ebe
000001c0: 43ad 783f ad8c f8bd 6588 82be 3175 c0bd
000001d0: 610d 9c3d 38dd e1bd 2c07 873f 0fb5 893f
000001e0: 0fb4 94bc 5349 893f 4efc a93c aaa5 25be
000001f0: 2dfa 9bbd 40c7 c1bd 484a eb3e e52b c1bd
00000200: a053 7640 e1bf dc3e 6c6b 1b3e edfb 75bd
00000210: a2c2 d23d df91 b8be 55bd 663c 6183 24bf
00000220: ba55 0d3d 9642 a5bd 424a 9cbd 2cf8 c23f
00000230: 0641 fbbe 053b 98be 4036 97bc 10ab 0f3c
00000240: e4cd afbe 20ea 2940 d70b 1d3d 6b53 92bb
00000250: b678 fbbf b35b e9be b8b1 2ebe 4100 b6bf
00000260: 7d35 733e cf66 a63f 25b3 d83c 9f12 19be
00000270: 15ee 143f 5890 0640 9434 32c0 9f65 1e3e
00000280: 7099 3e3e d62f 3440 3d6e e9bf 0a9a afbf
00000290: 7a8b 73c0 3fba 48c0 bc08 85be 23d4 4abe
000002a0: 8e91 16bf 6825 b8bd d25b b93e 53a9 86be
000002b0: a136 b93e 5d09 93bd 200a c9bf d558 52c0
000002c0: f059 c93d 17cc 0740 c7bd 3cc0 d90c 68c0
000002d0: be7a 45be 3572 023f 3f16 1b3e 2326 38bf
000002e0: 350b 3fc0 928c 0e3e 9fad a93e 884b 51c0
000002f0: 4b51 96bd 610a 9f3f f6cd eb3d b028 1c40
0.22330916 -0.034530185 -0.116122685 0.04756977 0.17284006 0.18368787 0.14326403 0.08164901
0.026005495 -0.023612905 0.18278372 -0.37992853 0.050883267 -0.07009044 0.037305016 0.1624524
0.32064706 0.04152405 0.23039028 0.017270971 -0.555657 -0.2616109 0.01773615 -0.49616167
0.00084950874 -0.46129227 0.07188255 0.021555841 -0.30352098 -0.049145453 -0.5181739 -0.038504444
0.15429205 0.045688592 0.18974604 -0.48077974 0.14194775 -0.39027983 -0.011822929 0.14709987
-0.31712672 -0.028274454 -0.030067118 0.08197375 -0.09758315 0.031852305 -0.5049706 -0.33654988
-0.19809812 -0.105173126 -0.46901873 -0.570278 0.34174442 -0.11527267 -0.013923817 -0.3297375
0.08817961 -0.07991504 0.2748098 -0.15867294 0.108068205 -0.54301643 -0.22254916 -0.67669976
-0.20823687 1.1039488 0.7699963 1.3158926 0.03410438 -0.016486092 -0.06724272 -0.16792652
0.5398933 1.2072746 -0.14139184 0.012015675 -0.15449888 -0.00942936 0.016000714 -0.20378773
-0.061854996 1.0437564 0.9934361 0.7719913 0.019520069 -0.08862884 0.5853219 -0.0630176
0.49834198 -0.032701768 -0.14749938 0.02367581 -0.15064001 -0.11393256 -0.08345691 -0.18840517
0.83290154 -0.044640057 1.4197195 -0.08076856 0.4173531 -0.13798976 0.10216533 -0.076925255
-0.11060085 0.9696678 -0.31204647 0.7933352 -0.16934206 -0.1746596 1.2289321 -0.1395813
0.97139376 -0.12136207 -0.25494686 -0.093973525 0.07619739 -0.11028522 1.0549064 1.075838
-0.018152265 1.0725502 0.020750191 -0.16176477 -0.076160766 -0.09461832 0.4595511 -0.094322
3.848854 0.43115142 0.15177697 -0.06005471 0.102910295 -0.3604879 0.014083226 -0.6426297
0.034505583 -0.08069341 -0.07631351 1.5231986 -0.49073046 -0.29732528 -0.018458486 0.008768812
-0.3433677 2.6549149 0.03834137 -0.0044655106 -1.9646213 -0.45577773 -0.17059982 -1.4218827
0.23750873 1.3000125 0.02645261 -0.1494851 0.58175784 2.10256 -2.784459 0.15468453
0.1861322 2.8154197 -1.8236767 -1.3718884 -3.805388 -3.1363676 -0.25983226 -0.19807486
-0.5881585 -0.0899151 0.36202866 -0.2630106 0.3617449 -0.0717952 -1.5706215 -3.2866719
0.09831607 2.1218317 -2.949083 -3.6257842 -0.19285104 0.50955516 0.15145205 -0.7193319
-2.985059 0.13920811 0.33140275 -3.270235 -0.07339724 1.2425042 0.11513893 2.4399834

gru.bias_hh_l0 f4 [192]
00000000: 5181 f03c 0642 f83d c53c f4bd 9cdf b7bc
00000010: 28d8 02bc f3eb 453e 4310 d63d b209 2a3e
00000020: f6e7 cd3d 732a 173d 8917 923e f1b3 d4be
00000030: d5f2 50bc 9532 153e ca94 34bd d736 4e3e
00000040: 7352 553e d28f 0f3e 1727 ad3d f586 c03d
00000050: d2b8 17bf 3e77 bebe 4e6f 03bd 343d 10bf
00000060: 54a6 493e 5aad 8abe 3d19 ba3b 9731 3a3d
00000070: 8a87 74be f836 6cbe 743e 0ebf 934f 8dbd
00000080: 6076 533e 4d42 373d c5ca 9b3e 8699 dfbe
00000090: edad 5f3e 19d0 01bf d258 a1bd ea7a db3d
000000a0: 3307 9cbe a9df a0bd ae13 d73b e44e 893e
000000b0: 4e2f d1bc d3fa 7ebd 16b7 cfbe 2c3a d2be
000000c0: 8229 27be 3b6f 8fbe 395d 00bf b290 e3be
000000d0: 0090 d63e acaa 3abe 398f 113e 2f36 86be
000000e0: b8e5 b13d d521 b2bd 8703 8b3e 17b2 87be
000000f0: b273 4e3e a397 22bf c5f3 dabb b3e1 41bf
00000100: 2fb0 83be 20ff 8e3f 3de9 2f3f 3fbf a63f
00000110: c18a c2ba 417c 7ebe 130c 81bc 8473 d1bd
00000120: dca5 173f 7e50 a43f 782f a6bd 6528 f5bd
00000130: 517c 90be 4cee 4bbd 44ae 1ebd 382d 7bbc
00000140: df2a 4bbe a51d 8b3f dcf2 8e3f d6e9 573f
00000150: e6c1 4dbe 8a14 a7bd 7175 083f b15a 093d
00000160: 9dd1 f03e 38f7 65be 1ca3 77bd ccde dbbd
00000170: f280 25bd 02e9 73bd 74cb 9fbe f619 98bd
00000180: f25a 7d3f 1001 a83c 857f b53f 756d 97bd
00000190: f89c 413e fc2e 0abe 6660 1b3e fa4c 15bd
000001a0: 5835 50be 212d 8b3f 4d54 55be 045f 4b3f
000001b0: deab d2bd 1a28 12be 7507 a13f 7a1f 6cbe
000001c0: 9a3c 793f 3c0e 65bd 5437 81be 61ff 20be
000001d0: a8c2 acbc dd58 45bd 915c 673f ee67 973f
000001e0: c928 f5bc 2863 933f 96fa d1bd 829e 39bd
000001f0: 1b29 89bc 980e 13bd d883 073f 8775 01be
00000200: 8e83 6e40 8e79 c53e 9748 f93d 6244 ee3b
00000210: 1614 293e 17a5 ccbe 014d 8d3f 4e63 12bf
00000220: 2fbd d3bd a6cf 9dbe 0cdf 0bbf 0b67 cc3f
00000230: c57b 0ebf a4f9 95be cac8 ac3d 1cce 5bbf
00000240: e12e 82be f839 1d40 050e 1a3f 8312 cb3d
00000250: 24b5 fdbf a458 2bbf e3ae c4bd a629 c6bf
00000260: 744a 8a3e 65b6 a23f 73d0 cc3e 8c8b 30bd
00000270: 80a1 483f 5f76 1440 52ab 30c0 f880 f43d
00000280: 7c04 583e 0c28 3840 84bb fabf 42a6 c3bf
00000290: 3c55 6ac0 2f9c 60c0 68b9 a2bd a436 e8bd
000002a0: 44f2 22bf fb35 e7bd c88b aa3e bac4 90be
000002b0: 0a35 a43e feed 613d ce9a bcbf dad6 5bc0
000002c0: 52ee ccbe ddd7 ff3f f6c5 7ac0 8cd6 63c0
000002d0: 00bc c6be 5a7b 9d3f 8133 1d3e 2fea eebe
000002e0: 469d 6bc0 4e2d d73d e1fe c83e 9016 55c0
000002f0: e6a3 0cbf 3211 aa3f 4610 163f 6159 1c40
0.029358538 0.12121968 -0.11925653 -0.022445492 -0.007986106 0.19328289 0.104523204 0.16605261
0.10054009 0.036905717 0.2853358 -0.41543534 -0.012753208 0.14570077 -0.04408721 0.20138107
0.20832233 0.14019707 0.084547214 0.09400741 -0.5926639 -0.3720035 -0.03208857 -0.5634339
0.19692355 -0.27085382 0.005679278 0.04545745 -0.23879829 -0.23067844 -0.55564046 -0.06899943
0.20650625 0.044740964 0.30428138 -0.43671817 0.21843691 -0.50708157 -0.07878269 0.10716803
-0.30474243 -0.0785516 0.0065636253 0.26818 -0.025535252 -0.062250923 -0.4056937 -0.41060007
-0.16324428 -0.2801455 -0.50142246 -0.4444633 0.41906738 -0.18229169 0.14214791 -0.26213214
0.086863935 -0.08697859 0.2715113 -0.2650306 0.20161322 -0.6351263 -0.0066818916 -0.75735015
-0.25720355 1.1171608 0.6871527 1.3027114 -0.0014842377 -0.24852087 -0.015752828 -0.10227111
0.59237456 1.2837064 -0.08114523 -0.11970595 -0.28219846 -0.049787804 -0.03874041 -0.015330605
-0.19840573 1.0868422 1.1167865 0.8434118 -0.20093498 -0.081582144 0.533042 0.033533756
0.47034922 -0.22457588 -0.060458288 -0.107358545 -0.040406175 -0.059548385 -0.3120991 -0.07426827
0.98966897 0.02050832 1.4179541 -0.07393924 0.18907535 -0.13494486 0.15173492 -0.036450364
-0.20332849 1.0873147 -0.2083294 0.7944186 -0.10286687 -0.1427311 1.2580401 -0.23058882
0.97358096 -0.055921778 -0.25237525 -0.1572242 -0.021088913 -0.04818045 0.9037562 1.1828592
-0.029926674 1.1514635 -0.102528736 -0.04531718 -0.016743233 -0.03590259 0.5293555 -0.1264249
3.7267795 0.385693 0.121720485 0.0072713355 0.16511568 -0.39969704 1.1039125 -0.57182777
-0.10338818 -0.30822486 -0.5463722 1.5968946 -0.5565761 -0.29292023 0.08436735 -0.8586137
-0.2542639 2.4566631 0.6017764 0.0991564 -1.9820905 -0.6693213 -0.096036695 -1.548146
0.27009928 1.2711912 0.40002784 -0.043101832 0.7837143 2.3197248 -2.7604566 0.11938661
0.2109546 2.8774443 -1.9588475 -1.5285113 -3.6614523 -3.5095327 -0.0794552 -0.11338547
-0.6365092 -0.11289593 0.3330977 -0.2827509 0.32071716 0.055158608 -1.4734743 -3.4349885
-0.40025574 1.9987751 -3.9183326 -3.55997 -0.38815308 1.2303269 0.15351678 -0.46663043
-3.6814742 0.10506688 0.39256957 -3.329502 -0.5493759 1.3286498 0.5861858 2.4429553

linear.weight f4 [1, 64]
00000000: 0f7a 97c0 eff3 91c0 e697 9140 f446 8f40
00000010: 4d15 9040 14c9 9440 390f 9040 0b3a 9640
00000020: ba1f 8dc0 47fd 91c0 20fe 91c0 1b9e 91c0
00000030: f5f1 9740 b752 9140 08ce 92c0 d8e3 91c0
00000040: f16e 9540 70e2 8fc0 7f64 8f40 d361 8fc0
00000050: 8771 9440 4b0a 8e40 a52e 90c0 7c2d 9240
00000060: 0ed8 8c40 368d 95c0 1fa0 9540 fd80 94c0
00000070: 465e 96c0 1320 98c0 2c5a 9540 64df 90c0
00000080: deff 8dc0 04de 8fc0 a870 8f40 d11f 9440
00000090: eb7a 9240 7d3e 9340 cef3 8e40 ac00 9140
000000a0: 506f 9840 471c 92c0 0c4e 96c0 ed4d 9040
000000b0: 65cb 91c0 0f16 9340 3f9e 9140 2b19 9640
000000c0: b6a8 9040 0da5 97c0 b9c6 9640 c2be 9240
000000d0: 7500 9140 4ece 93c0 81e4 8dc0 2573 9240
000000e0: 1c6c 9340 93cf 8f40 883c 90c0 9563 9340
000000f0: 6763 91c0 b00d 99c0 3b14 8fc0 2c2d 97c0
-4.7336497 -4.561027 4.5497923 4.4774113 4.5026 4.6495457 4.501858 4.6945853
-4.410123 -4.5621676 -4.562271 -4.55055 4.748286 4.541347 -4.5876503 -4.559063
4.6697927 -4.4963913 4.4810176 -4.4806914 4.6388583 4.4387565 -4.505694 4.5680523
4.401374 -4.6734877 4.675796 -4.6407456 -4.699008 -4.7539153 4.6672573 -4.5272694
-4.437484 -4.4958515 4.482502 4.628884 4.5775046 4.601378 4.4672613 4.531332
4.763588 -4.565952 -4.697027 4.5095124 -4.5560784 4.5964427 4.550567 4.6905723
4.5205946 -4.738898 4.711758 4.585786 4.531306 -4.6189337 -4.4341435 4.5765557
4.606947 4.4940886 -4.507389 4.605906 -4.543384 -4.782921 -4.4712195 -4.724264
