models/005-lstm-features.pt (torch, 75239 bytes, 5 tensors)

lstm.weight_ih_l0 f4 [256, 5]
0	0x3d9e03f5	0.077155985
1	0xbf14ec8b	-0.58173436
2	0xbc148000	-0.009063721
3	0xbbc285cb	-0.0059363595
4	0x3c30556e	0.0107625555
5	0x3d816376	0.06317799
6	0x3ce6ea99	0.028188037
7	0x3dea4da6	0.114405915
8	0x3bd54d74	0.0065094773
9	0x3df7b47f	0.12094974
10	0x3d905b38	0.070486486
11	0xbeac844a	-0.3369468
12	0x3b9781a6	0.0046236096
13	0xbc56d23c	-0.013111647
14	0x3c85aa8d	0.016316677
15	0x3d29c918	0.041451544
16	0x3e3521e0	0.17688704
17	0x3b1fddeb	0.0024393748
18	0x3b7bb251	0.0038405845
19	0xbbfc1650	-0.0076930895
20	0x3d549ece	0.05190926
21	0x3e91de70	0.2849002
22	0x3e4982e1	0.19678833
23	0x3e04b449	0.12959398
24	0x3e68ffd4	0.2275384
25	0x3d5ae7a9	0.053443585
26	0x3c3a3d9e	0.01136723
27	0x3e10b483	0.1413136
28	0x3c8c09ff	0.01709461
29	0xbcfebf62	-0.031097118
30	0x3d5e79c2	0.054315336
31	0x3bc8bb3f	0.006125837
32	0x3c0ffd28	0.0087883845
33	0xbbcd00a2	-0.006256179
34	0x3cf46d16	0.029837172
35	0x3db09f2e	0.08624111
36	0xbe3e5b0a	-0.18589416
37	0xba4ea143	-0.0007882306
38	0xbb40e536	-0.0029433495
39	0xbbfab6a7	-0.0076511684
40	0x3d411283	0.047136795
41	0xbca06f89	-0.019584434
42	0xbbd6ccd6	-0.00655518
43	0xbb3f3fd0	-0.0029182322
44	0xbbb87ebb	-0.005630342
45	0x3d5088c7	0.05091169
46	0x3e26356e	0.1623132
47	0x3da33a77	0.07970136
48	0x3ca8e6fb	0.020617953
49	0x3db87319	0.09006328
50	0x3d84af5e	0.06478761
51	0x3d35defb	0.044402104
52	0x3d2d4bdc	0.042308673
53	0x3c41e8a1	0.011835248
54	0x3e2a86e1	0.16653015
55	0x3d5eb42c	0.054371044
56	0x3dd88129	0.1057151
57	0x3db37df6	0.087642595
58	0x3d073fe0	0.0330199
59	0x3dd2cb38	0.10292667
60	0x3d633bf1	0.055477086
61	0x3e9db353	0.30800876
62	0x3d8dcdbe	0.06924008
63	0x3dac1d82	0.08404066
64	0x3e1e4a13	0.15457945
65	0x3d6602ff	0.0561552
66	0x3e109174	0.14117986
67	0x3e49edb1	0.19719578
68	0x3d984fe9	0.07437117
69	0x3da4b6dd	0.08042691
70	0x3d860fd6	0.06545989
71	0xbee91301	-0.4552231
72	0xbb8139ef	-0.003943674
73	0xbae5e652	-0.0017539954
74	0x3b726fde	0.0036992948
75	0x3d752336	0.059848033
76	0x3cbfc9b2	0.023411606
77	0x3d3e5bfd	0.046474446
78	0x3e03c274	0.12867147
79	0x3b523995	0.0032077779
80	0x3d602d66	0.054730795
81	0x3e0357ea	0.12826505
82	0x3c55714c	0.0130275
83	0x3ceec229	0.029145317
84	0xbcccb898	-0.024990365
85	0x3d79ffac	0.061034843
86	0x3e0237a8	0.12716544
87	0xbb2891a3	-0.0025721572
88	0x3c63d3a7	0.013905442
89	0x3d07d981	0.033166412
90	0x3dbab3b4	0.09116307
91	0xbe7aa4f5	-0.24476989
92	0xbc155d9b	-0.009116556
93	0xbb5edfc4	-0.0034007886
94	0x3caa51cf	0.020790963
95	0x3e1f0bfb	0.15531914
96	0x3ec8faf6	0.39253968
97	0x3bbeda6f	0.005824379
98	0x3ba731d0	0.0051023737
99	0x3d409233	0.047014426
100	0x3e1d1507	0.15340053
101	0xbef1a470	-0.47195768
102	0x3c34efe2	0.011043521
103	0xba9e488e	-0.0012076066
104	0x3ba3b308	0.0049957074
105	0x3d81f4fc	0.06345555
106	0x3c03d544	0.008046452
107	0x3e07097b	0.1318721
108	0x3b306045	0.002691285
109	0x3d6c7406	0.057727836
110	0x3deaa4ec	0.114572376
111	0xbe9beba1	-0.30453208
112	0x3ba567ef	0.0050477902
113	0xbbf93788	-0.007605497
114	0x3b5454ec	0.003239925
115	0x3d4e0d5b	0.050305706
116	0x3e86f084	0.26355374
117	0x3d544a4c	0.051828668
118	0x3e30df8a	0.17272773
119	0x3dc5868a	0.09644802
120	0x3dc5a688	0.09650904
121	0xbed46b15	-0.41487947
122	0xbc03ac92	-0.008036749
123	0xbb950861	-0.004548118
124	0x3c4f99ea	0.012670973
125	0x3d9539de	0.07286428
126	0x3d70befb	0.058775883
127	0x3cc9afad	0.024619902
128	0x3c550668	0.013002016
129	0x3d888560	0.06666064
130	0x3d94c3db	0.07263919
131	0xbebcb668	-0.36857915
132	0xbbb40a4f	-0.005494393
133	0x3b90329c	0.0044005644
134	0xbb0b6802	-0.002127171
135	0x3e357423	0.17720084
136	0x3dbb283f	0.09138536
137	0x3df93d52	0.12169899
138	0x3d20db8d	0.03927188
139	0x3e2c4ce5	0.16826208
140	0x3d799127	0.060929444
141	0xbed95bdf	-0.42452905
142	0xbaabe229	-0.0013113666
143	0x3c18a9e4	0.009317849
144	0xbb83bc21	-0.0040202294
145	0x3dae6f41	0.08517314
146	0xbeac8328	-0.33693814
147	0x3acba856	0.0015537839
148	0xbb788b84	-0.0037924955
149	0x3c7814ce	0.015141679
150	0x3d831478	0.064003885
151	0xbef55e5a	-0.47923547
152	0xbb64b9e1	-0.0034900832
153	0xbbca6d3f	-0.006177574
154	0xbca51f21	-0.020156445
155	0x3d6a6512	0.057225294
156	0x3e137940	0.14401722
157	0x3e271ced	0.16319628
158	0x3d1282f6	0.035769425
159	0xbc36f209	-0.011166104
160	0x3e7ec5dd	0.24880166
161	0x3e5eb89a	0.21750107
162	0x3e217238	0.15766227
163	0x3be522ae	0.0069926595
164	0xbc85abc7	-0.016317261
165	0x3d8baa32	0.068195716
166	0x3e836ae2	0.25667483
167	0x3d9e6100	0.07733345
168	0x3d107048	0.03526333
169	0x3e3edb8c	0.18638438
170	0x3d57e65e	0.05270993
171	0xbf01c3cb	-0.5068938
172	0xbb33d67a	-0.002744107
173	0x3bc86687	0.006115738
174	0x3a778fef	0.000944375
175	0x3d357985	0.044305343
176	0x3deab032	0.11459388
177	0xbbfd70a0	-0.007734373
178	0xbb845912	-0.0040389383
179	0xb9a0b678	-0.00030653528
180	0x3d37a5ad	0.044835735
181	0x3e280965	0.16409834
182	0xbabe9953	-0.0014541544
183	0xba50405a	-0.00079441594
184	0x3b9537ec	0.0045537855
185	0x3d617242	0.055040605
186	0x3e494d5d	0.19658418
187	0x3dcad418	0.09903735
188	0x3cd1efe0	0.025627077
189	0x3dc42b9d	0.09578631
190	0x3d5ff026	0.054672383
191	0x3d9b9e10	0.075985074
192	0x3c068198	0.0082096085
193	0x3e26cce2	0.16289094
194	0xbd340583	-0.04395057
195	0x3d3cf680	0.04613352
196	0x3f1d7cd2	0.61518586
197	0xbc5fdc83	-0.013663414
198	0x3a217704	0.00061593973
199	0x3d1d5071	0.038406793
200	0x3d686c69	0.056744013
201	0x3e57433d	0.21021743
202	0x3dfe8bda	0.12429018
203	0x3d9bd349	0.07608659
204	0x3dc2b23c	0.09506652
205	0x3d2a5da9	0.041593228
206	0xbbd99fc8	-0.006641362
207	0xbb66f1f2	-0.0035239425
208	0x3b115b9a	0.0022179843
209	0xbc7ebece	-0.015548421
210	0x3d71ae4a	0.059004106
211	0x3e6a9091	0.2290671
212	0x3dea6f1a	0.11446972
213	0x3e0ecf4c	0.13946265
214	0x3e5f256b	0.21791618
215	0x3d6ec8b6	0.05829688
216	0x3d8002ff	0.062505715
217	0x3e24448d	0.16041775
218	0x3d801fa1	0.06256033
219	0x3d1ecd35	0.03876992
220	0x3d566934	0.052346423
221	0x3d4685e6	0.04846754
222	0x3e441ca5	0.19151552
223	0x3d71c69b	0.059027296
224	0x3c563f0b	0.013076554
225	0x3d83927a	0.064244226
226	0x3b846234	0.004040027
227	0x3d5677f8	0.052360505
228	0x3d3287f1	0.043586675
229	0x3cbb1d30	0.022841066
230	0x3de49873	0.1116189
231	0x3e8b8ae1	0.27254394
232	0x3bbff4f6	0.005858059
233	0x3b9e1ac6	0.004824969
234	0x3e138e38	0.14409721
235	0x3d522282	0.05130244
236	0x3e4f6861	0.20254661
237	0x3cb6c135	0.022308925
238	0x3cc41da7	0.02393992
239	0x3cf9b8ef	0.030483691
240	0x3d646229	0.055757675
241	0x3d98ab95	0.07454602
242	0x3c115e7d	0.008872625
243	0x3ca6b3bc	0.020349376
244	0xbd1c4551	-0.038152043
245	0x3e3b65b1	0.18300511
246	0x3e0c3417	0.13691746
247	0x3cbe219f	0.023209391
248	0x3d29e5f4	0.041479066
249	0x3c8c676c	0.01713916
250	0x3d8453c8	0.064612925
251	0xbc0c342d	-0.008557362
252	0x3dd8f650	0.105938554
253	0x3dff3f73	0.12463274
254	0x3d255ab7	0.040369716
255	0x3d60432c	0.05475156

lstm.weight_hh_l0 f4 [256, 64]
0	0xbed11260	-0.40834332
1	0xbeb725fb	-0.35771164
2	0x3ed88943	0.42292222
3	0xbed2fd5e	-0.4120893
4	0xbe899e89	-0.26878765
5	0xbe99f850	-0.3007226
6	0x3ed7ba4b	0.42134318
7	0x3ec3acc2	0.3821774
8	0x3b1b6931	0.0023713822
9	0x3e03ed04	0.12883383
10	0x3ec0c4b0	0.3765006
11	0xbe5f488d	-0.2180502
12	0x3e33a6cb	0.17544095
13	0x3ead4a2e	0.33845657
14	0x3e64892a	0.22317949
15	0x3f2d2a2c	0.67642474
16	0xbec41742	-0.38298994
17	0xbe801117	-0.2501304
18	0xbefc09bc	-0.49226177
19	0xbe9738df	-0.29535577
20	0x3cb4aeca	0.022056002
21	0xbe010860	-0.12600851
22	0xbea6cb3c	-0.3257693
23	0x3e5d6b53	0.21622972
24	0x3eee730c	0.4657215
25	0xbee989fb	-0.45613083
26	0x3e915ff9	0.28393534
27	0x3f1567eb	0.5836169
28	0x3ea5a7cb	0.32354578
29	0xbef6bd05	-0.48191085
30	0x3e840369	0.25783852
31	0x3e1c6676	0.15273461
32	0x3ecd694f	0.40119407
33	0xbf24d502	-0.64387524
34	0x3c8af693	0.016963279
35	0x3e9e3a86	0.30904025
36	0x3e8f1426	0.2794506
37	0x3ebe23c4	0.37136662
38	0xbe6057e8	-0.21908534
39	0xbebbab0f	-0.36653945
40	0xbf165996	-0.5873045
41	0xbe076639	-0.13222589
42	0x3e392045	0.18078716
43	0x3e0353ea	0.1282498
44	0x3eb5dc5f	0.35519692
45	0xbe0d97fe	-0.13827512
46	0xbed31ae4	-0.41231453
47	0xbe77dd04	-0.24205405
48	0x3dd6c38f	0.104865186
49	0xbe056c94	-0.130297
50	0x3e717921	0.23581363
51	0x3ed93527	0.42423365
52	0x3e9b55ee	0.30338997
53	0xbc1668e1	-0.0091802785
54	0x3f570d30	0.840045
55	0xbe7c3eb8	-0.246333
56	0x3eb36a07	0.3504183
57	0x3e7f16d0	0.24911046
58	0x3ca503fc	0.020143501
59	0xbed0aaaf	-0.4075522
60	0xbe8a1ce5	-0.2697517
61	0x3e6e8c55	0.2329572
62	0x3f38cfc5	0.7219203
63	0x3f47edc1	0.7809716
64	0x3e98aed5	0.29820886
65	0x3db4492a	0.088030174
66	0xbe1862b9	-0.1488141
67	0x3f0bafa4	0.5456488
68	0x3da1a599	0.07892913
69	0x3d9fd57a	0.07804389
70	0xbdba53af	-0.09097993
71	0xbdb2f052	-0.08737244
72	0xbd9fb01a	-0.077972606
73	0x3de4f0c3	0.11178734
74	0x3d30205c	0.04299961
75	0x3eb184bf	0.3467159
76	0xbec1b51f	-0.37833497
77	0xbeab12b6	-0.33412713
78	0xbde30e2d	-0.11086688
79	0xbd7a60f4	-0.061127618
80	0xbda77de6	-0.0817831
81	0x3c85acff	0.016317843
82	0x3cf75130	0.03019008
83	0x3df6e5bd	0.12055538
84	0x3ea4d447	0.32193205
85	0xbe077cab	-0.13231151
86	0x3e2452a6	0.16047153
87	0xbe388465	-0.18019255
88	0xbdcf989b	-0.10136529
89	0x3df6ae43	0.120449565
90	0xbe14b514	-0.14522201
91	0xbe74a15a	-0.23889676
92	0x3c3799c8	0.011206098
93	0x3dc2083f	0.09474229
94	0xbd6ea262	-0.05826033
95	0x3bfd5ce0	0.007732019
96	0x3cf204a5	0.02954323
97	0x3d8a7fc2	0.06762649
98	0xbe0cc795	-0.1374801
99	0x3d248905	0.040169735
100	0x3d77ae2f	0.06046885
101	0xbd91ca9e	-0.07118724
102	0x3d865824	0.0655978
103	0x3e01f29b	0.12690203
104	0x3ea27cfb	0.31735978
105	0xbe5d2ec0	-0.21599865
106	0xbe01a871	-0.12661912
107	0xbe346a47	-0.17618667
108	0xbe1ac137	-0.15112768
109	0xbd32068c	-0.043463275
110	0x3e1a93a3	0.15095381
111	0x3dc80049	0.097656794
112	0x3bc1f734	0.0059193615
113	0xbdb0360c	-0.086040586
114	0xbd3c1fc3	-0.045928728
115	0xbda89594	-0.08231655
116	0x3cc38674	0.023867823
117	0x3e6e9570	0.23299193
118	0xbf0ffb6d	-0.5624302
119	0x3debb7c7	0.11509662
120	0xbe2a45f4	-0.16628247
121	0xbe315534	-0.17317659
122	0x3dcb6fcd	0.09933434
123	0x3e0707a7	0.13186513
124	0x3d697240	0.056993723
125	0xbe7b7005	-0.24554451
126	0xbe1216a3	-0.14266448
127	0xbea775a3	-0.32706937
128	0xbf228b30	-0.63493633
129	0xbe7f500f	-0.24932884
130	0x3ebb4996	0.3657958
131	0xbe856433	-0.26053008
132	0xbed8d294	-0.42348158
133	0xbea3ce8d	-0.31993523
134	0xbdcf2c7f	-0.10115909
135	0x3e50b6e2	0.20382264
136	0x3e8f2219	0.27955702
137	0x3e846d7c	0.2586478
138	0x3e95f9cd	0.29292145
139	0xbf24c3dc	-0.6436136
140	0x3e8c63d2	0.27419907
141	0x3f17382b	0.5907008
142	0x3c21a2af	0.009865447
143	0x3f46c580	0.7764511
144	0xbe626d6f	-0.22112058
145	0xbeb00f61	-0.34386733
146	0xbe8cfec3	-0.27538118
147	0xbe993656	-0.29924268
148	0xbd7e6e5e	-0.062116973
149	0xbea2d80e	-0.31805462
150	0xbe4d4fd3	-0.20049982
151	0x3ef9f5a3	0.48820218
152	0x3e86bc69	0.2631562
153	0xbea15540	-0.31510353
154	0x3d40d75a	0.047080375
155	0x3f326803	0.6968996
156	0x3e4951d1	0.19660117
157	0xbe59fcc5	-0.2128783
158	0x3e533925	0.20627268
159	0x3ead0e53	0.3379999
160	0x3dc59987	0.09648424
161	0xbf2dd000	-0.6789551
162	0xbe324426	-0.17408809
163	0x3ebf4899	0.37360075
164	0x3eb07ee4	0.3447181
165	0x3e4e4ecb	0.20147245
166	0xbe8195cc	-0.25309598
167	0xbe8a2ba5	-0.26986423
168	0xbd2d7904	-0.042351738
169	0xbec824ca	-0.39090568
170	0x3c9c4b3f	0.019078849
171	0x3dad7cc0	0.0847106
172	0x3e2848fd	0.16434093
173	0x3dbb4a0a	0.09144981
174	0xbe44c97e	-0.19217488
175	0xbe456f86	-0.19280824
176	0xbd698de6	-0.05702009
177	0xbdabd313	-0.083898686
178	0xbe853640	-0.26017952
179	0x3e4236dd	0.18966241
180	0x3ebd487f	0.36969373
181	0x3e98846b	0.29788527
182	0x3f220ed2	0.63303864
183	0xbea1d492	-0.3160749
184	0x3ec2d0f0	0.38050032
185	0x3ea9e8bb	0.33185372
186	0xbe329267	-0.1743866
187	0xbec85bab	-0.39132437
188	0xbeaddc2c	-0.3395704
189	0x3e013052	0.12616089
190	0x3e7052dc	0.23469108
191	0x3f1bd42f	0.6087064
192	0xbe42ec2e	-0.19035408
193	0xbd0eaea1	-0.034834508
194	0x3d829539	0.06376118
195	0xbe5f64f1	-0.2181585
196	0xbd73a11f	-0.05947983
197	0x3e03f10e	0.12884924
198	0xbe50af86	-0.20379457
199	0x3d8194fe	0.06327246
200	0x3e894b5b	0.26815304
201	0xbc6cc633	-0.014451551
202	0x3d9064e1	0.07050491
203	0x3e3f3a94	0.1867469
204	0xbdc1a57c	-0.09455392
205	0xbd9fb4c2	-0.07798149
206	0xbdd4fa13	-0.1039926
207	0xbe35b0dc	-0.17743248
208	0x3e085b91	0.1331618
209	0xbdf0d848	-0.117600024
210	0xbe3a97e6	-0.18222007
211	0x3ea7e477	0.32791492
212	0x3e565aee	0.20933124
213	0x3e103aec	0.14084977
214	0xbd9ae43e	-0.07563065
215	0x3d96be57	0.07360523
216	0xbe3ef692	-0.18648747
217	0xbcb27818	-0.02178578
218	0xbde2ddaa	-0.11077435
219	0xbe617313	-0.22016554
220	0xbcd6c966	-0.026219081
221	0xbe070f8c	-0.13189524
222	0xbcda5273	-0.026650643
223	0xbc61911c	-0.013767507
224	0xbdde7c07	-0.108635
225	0xc0010266	-2.0157714
226	0xbd96804f	-0.07348692
227	0xbd3e925c	-0.046526298
228	0xbe0b636c	-0.13612145
229	0xbe6f2c2b	-0.23356692
230	0x3e85d1fd	0.2613677
231	0xbdb96578	-0.09052557
232	0x3ec481b1	0.38380197
233	0xbe8d5e6b	-0.27611098
234	0xbe77ffe6	-0.24218711
235	0x3d99d29c	0.07510874
236	0xbc959c32	-0.018262956
237	0x3eb30490	0.34964418
238	0x3e2eea0c	0.1708147
239	0x3e470ae0	0.19437742
240	0xbd7aa41b	-0.06119166
241	0x3e706bb1	0.23478581
242	0xbee88a74	-0.4541813
243	0xbda21d9a	-0.07915802
244	0xbd29c0ff	-0.04144382
245	0x3e652880	0.22378731
246	0xbe2b1fab	-0.16711299
247	0x3e035828	0.12826598
248	0xbdcbd73b	-0.09953161
249	0x3dde9d11	0.10869802
250	0x3e870f26	0.26378745
251	0x3d087a06	0.033319496
252	0xbcc7a603	-0.024371153
253	0xbce2ea66	-0.02769966
254	0xbea02d3b	-0.31284508
255	0xbd047c57	-0.032345142

lstm.bias_ih_l0 f4 [256]
0	0xbfe4fd12	-1.7889731
1	0x3dc2e553	0.095163964
2	0xc051c236	-3.2774787
3	0x3d5a8d82	0.05335761
4	0x3e5ad7b5	0.21371348
5	0x3e4345c4	0.19069582
6	0xc004457a	-2.0667405
7	0xbfb78636	-1.4337833
8	0xbedeaa28	-0.43489194
9	0x3e202f8f	0.15643142
10	0x3e85a430	0.26101828
11	0x3e9d1362	0.3067885
12	0x3e94eb89	0.2908595
13	0x3e57eee1	0.21087219
14	0xc002f398	-2.0461178
15	0x3dc7680a	0.09736641
16	0x3de48a8f	0.111592405
17	0x3e0071c7	0.12543403
18	0xc001a66a	-2.025782
19	0xbe3678bb	-0.17819493
20	0xbf86d722	-1.0534403
21	0x3dd2897d	0.1028013
22	0xbfd4dc81	-1.6629792
23	0x3e600e65	0.21880491
24	0xbfe3b83a	-1.7790596
25	0x3ce4a312	0.02790979
26	0xbfad852e	-1.3556268
27	0x3dd8d75e	0.10587953
28	0xc014aa62	-2.3228993
29	0xc013585f	-2.3022687
30	0xc01e342d	-2.4719346
31	0x3c2a6732	0.01040058
32	0x3e606685	0.21914108
33	0x3da2af80	0.0794363
34	0xc01cf489	-2.4524252
35	0xbfac0060	-1.3437614
36	0xbfa9ceb6	-1.3266208
37	0x3e605bd6	0.21910033
38	0xbd5948bf	-0.05304789
39	0xbfeab3c2	-1.8336108
40	0x3de6349e	0.11240505
41	0x3e1fa7c6	0.15591344
42	0x3e774288	0.24146473
43	0x3d0cb3a8	0.03435102
44	0x3dc3ec23	0.09566524
45	0x3e403c58	0.1877302
46	0x3d3c82b5	0.04602309
47	0x3c981b9e	0.018567856
48	0x3e06f1ab	0.13178127
49	0x3d7c1080	0.061539173
50	0x3b2832d1	0.0025665055
51	0x3e1da325	0.15394266
52	0x3e5d0919	0.21585502
53	0x3d17366a	0.036917128
54	0xbf642806	-0.8912357
55	0xbec79446	-0.3898031
56	0x3e993ef1	0.29930833
57	0xbfa77811	-1.3083516
58	0xbf96e73e	-1.178932
59	0x3dac02f0	0.08398998
60	0x3cbb18eb	0.02283903
61	0xc00e1b5c	-2.22042
62	0x3e00b8dd	0.1257052
63	0xbe8e5ede	-0.27806753
64	0xbd11aa29	-0.035562668
65	0x3dfdb1d3	0.12387433
66	0x3d625172	0.055253454
67	0xba65cdcc	-0.0008766323
68	0x3e30af78	0.17254436
69	0x3dfbdb54	0.12297693
70	0xbea0f336	-0.31435555
71	0xbea0ca56	-0.3140437
72	0xbf6e48f7	-0.93080086
73	0x3defb07f	0.11703586
74	0xbd8e80ed	-0.069581844
75	0x3e46e4cf	0.19423221
76	0xbf8bfc55	-1.0936381
77	0x3db084c3	0.08619072
78	0xbe9d1e0e	-0.30686992
79	0xbe963f03	-0.2934495
80	0x3d8b52d3	0.06802907
81	0xbbfe2ee9	-0.007757057
82	0x3e336b05	0.17521293
83	0xbf957e77	-1.1679219
84	0xbff32c3f	-1.8997878
85	0x3b5a0b20	0.0033270791
86	0x3e1e8bf1	0.15483071
87	0x3e1ea1cf	0.15491413
88	0x3a044d3c	0.0005046909
89	0x3d3299af	0.043603595
90	0xbf5ac6fa	-0.85459864
91	0xbf962b9f	-1.1732062
92	0xbc34bc68	-0.011031248
93	0x3d9862a5	0.0744069
94	0x3cde7930	0.027157396
95	0x3e1b26bf	0.15151499
96	0x3e2d0120	0.1689496
97	0x3c331683	0.01093066
98	0xbd5a0993	-0.053231787
99	0xbf413a1a	-0.7547928
100	0x3cdebe98	0.027190492
101	0xbe755c42	-0.23960975
102	0x3e57e7db	0.2108454
103	0x3d8d2aab	0.06892904
104	0xbe05be8c	-0.13060969
105	0x3e6f4410	0.23365808
106	0xbe510a00	-0.20413971
107	0xbd53ff03	-0.05175687
108	0x3e0164a6	0.1263605
109	0x3e555a3d	0.20835204
110	0x3cab0b8e	0.020879533
111	0xbf1af47a	-0.6052929
112	0x3c5d724c	0.01351602
113	0xbe7e833a	-0.24854746
114	0x3e4a44cc	0.19752806
115	0x3e500cc4	0.2031737
116	0x3d9f7972	0.07786836
117	0xbcadf34d	-0.021234179
118	0xbe03a09d	-0.12854238
119	0x3e44efe5	0.19232138
120	0xbe1e7728	-0.15475142
121	0x3e42052b	0.18947284
122	0x3bf2b4e6	0.0074068187
123	0xbf1eceb9	-0.62034184
124	0xbd08e28a	-0.03341917
125	0xbd76a754	-0.06021817
126	0xbd442ffa	-0.047897317
127	0xbf846380	-1.0342865
128	0xbf30d560	-0.69075584
129	0x3e026c85	0.1273671
130	0xbd2718aa	-0.040795006
131	0xbff6cde6	-1.9281585
132	0x3d93a0c6	0.072083995
133	0x3c1a14ad	0.009404344
134	0x3ec5ff89	0.3867152
135	0x3d9a2738	0.07527012
136	0xc03b22d9	-2.924002
137	0x3fd37f4d	1.6523224
138	0xbd6b41c2	-0.05743576
139	0xbbbd2662	-0.005772398
140	0xbe1990d0	-0.14996648
141	0xbde4d06f	-0.11172568
142	0x3f0fdf86	0.56200445
143	0x402f1fc0	2.7363129
144	0x3e04e0f1	0.12976433
145	0xbcc93426	-0.024561
146	0x3d2e9687	0.042624023
147	0xbeedc905	-0.46442428
148	0xc04c1923	-3.1890342
149	0x3e6e4a36	0.23270497
150	0xc0047291	-2.0694926
151	0xbd2f3819	-0.04277811
152	0x3d0b3886	0.03398945
153	0xbdbd7e7b	-0.0925264
154	0x40272485	2.611604
155	0x3f844a62	1.03352
156	0x3f09a11e	0.5376147
157	0x3d3c2943	0.045937788
158	0x3e7dabec	0.24772614
159	0xbd27494b	-0.040841382
160	0x3e82a876	0.2551915
161	0x3e0418af	0.12900041
162	0x3ed26429	0.4109204
163	0xbe26aeef	-0.1627767
164	0x3cc49e84	0.024001367
165	0x3e63ad2d	0.2223403
166	0x3e0582f5	0.13038237
167	0x3cab62a1	0.020921053
168	0xc061ee92	-3.5301862
169	0x402ae849	2.6704276
170	0x40781417	3.8762262
171	0x3fbf7c5f	1.495983
172	0xbcd04d6a	-0.025427539
173	0xc005df6d	-2.0917618
174	0xbd6a7406	-0.057239555
175	0xbf08d031	-0.53442675
176	0x4069a0e7	3.6504457
177	0xbe5ec36f	-0.2175424
178	0x4060ba0d	3.5113556
179	0x3e21bb79	0.15794171
180	0xbd34cc24	-0.044139996
181	0xc0598106	-3.3985
182	0x3fd5ea0b	1.6712049
183	0x3de6e2c1	0.112737186
184	0x3be1afb8	0.0068874024
185	0xbe10b15a	-0.14130154
186	0xc07be7b6	-3.9360175
187	0x3cd5ff26	0.02612264
188	0xbfbb8fad	-1.4653221
189	0x3dad29c1	0.084552296
190	0x403f743e	2.9914699
191	0x3fa5435a	1.2911179
192	0x3e512cf2	0.20427302
193	0xbed252ab	-0.41078696
194	0xbf01be2b	-0.506808
195	0x3e95d702	0.292656
196	0xbf29907b	-0.66236085
197	0xbe3326a8	-0.17495215
198	0xc00a71e3	-2.163201
199	0xbea70789	-0.32622936
200	0x3d50710f	0.05088907
201	0x3c105e5c	0.0088115595
202	0x3dfe472c	0.12415919
203	0xbfc2d7c2	-1.5222094
204	0xbf0cc687	-0.5499043
205	0xbf621bf2	-0.8832389
206	0x3e13f0fb	0.14447396
207	0xbf929aee	-1.1453531
208	0xbd961d94	-0.0732986
209	0x3dd500b8	0.10400528
210	0x3e82d6ae	0.25554413
211	0x3e03c321	0.12867405
212	0x3d7c1cfa	0.06155107
213	0xbf385259	-0.7200065
214	0x3e3bab4f	0.18327068
215	0xbeb3deef	-0.35131022
216	0xbea6187a	-0.3244055
217	0x3e3b6b8b	0.18302743
218	0x3e2f5343	0.17121606
219	0x3e73515e	0.23761508
220	0x3d851f4c	0.0650011
221	0x3bb31b8a	0.0054659294
222	0x3e15275f	0.145658
223	0xbeda33c6	-0.42617625
224	0xbdc6f2b5	-0.097142614
225	0xbe71eb96	-0.23625025
226	0x3d5b44e2	0.05353249
227	0x3d26d7a1	0.040732983
228	0xbef75119	-0.4830406
229	0xbfd89787	-1.6921242
230	0xbf098a30	-0.5372648
231	0x3d168232	0.036745258
232	0xbf602eb7	-0.8757128
233	0x3e5e57fc	0.21713251
234	0xbebde1aa	-0.3708623
235	0xbe252109	-0.16125883
236	0x3a66cb96	0.00088041404
237	0xbf1a6aeb	-0.60319394
238	0xbe708260	-0.23487234
239	0xbfc216f0	-1.516325
240	0xbd1631ff	-0.036668774
241	0xbe6ca9f2	-0.23111704
242	0xbed775f0	-0.42082167
243	0xbf4448d6	-0.7667364
244	0xbe12f571	-0.14351441
245	0x3de5126f	0.111851566
246	0x3e9af3e6	0.30264205
247	0xbcbb010b	-0.022827646
248	0xbed4733d	-0.4149417
249	0x3e05f19e	0.13080451
250	0x3de0f831	0.10984839
251	0x3e0731f4	0.1320265
252	0x3da501ca	0.08056982
253	0x3e83a335	0.25710455
254	0xbf6fcc8c	-0.9367149
255	0x3dd1067f	0.10206317

lstm.bias_hh_l0 f4 [256]
0	0xbfe63b6c	-1.7986884
1	0x3e40c769	0.18826069
2	0xc056c9cd	-3.356067
3	0x3d8a798b	0.06761464
4	0x3dc210bb	0.09475847
5	0x3c88a1c4	0.016678698
6	0xc00486cd	-2.0707276
7	0xbfb9938b	-1.4498152
8	0xbf001099	-0.50025326
9	0x3da7fa87	0.08202081
10	0x3e6498fe	0.22323987
11	0x3e5ca23a	0.2154626
12	0x3e2e8142	0.17041495
13	0x3dbc1b5d	0.09184907
14	0xbff9531d	-1.9478489
15	0x3e69c601	0.22829439
16	0xbcc9cc4d	-0.024633551
17	0x3dd05b40	0.101736546
18	0xbfeabfed	-1.8339821
19	0xbe3826f9	-0.17983617
20	0xbf88ce18	-1.0687895
21	0xbd0b8724	-0.034064427
22	0xbfd9990d	-1.6999832
23	0x3e32dc9f	0.17466973
24	0xbfcd0d07	-1.6019601
25	0x3e03e11a	0.12878838
26	0xbfb895a5	-1.4420668
27	0x3d87eb2b	0.066366516
28	0xc0151596	-2.3294425
29	0xc00a50f5	-2.1611912
30	0xc0191a11	-2.392216
31	0x3e797f73	0.24365024
32	0x3d62c80e	0.05536657
33	0x3de00c44	0.109398395
34	0xc0131fae	-2.2988086
35	0xbfb11db7	-1.3837193
36	0xbfabfca9	-1.3436481
37	0x3dc758d5	0.0973374
38	0xbc08cac7	-0.008349127
39	0xbff0cba0	-1.8812141
40	0x3e9915b9	0.29899386
41	0x3df3d529	0.119058914
42	0x3e136320	0.14393282
43	0x3c82491a	0.015903998
44	0x3e2f33cf	0.17109607
45	0x3e103d4f	0.14085887
46	0x3de325a5	0.110911645
47	0x3dc2cab1	0.095113166
48	0x3d2148c4	0.039376035
49	0x3d55450e	0.05206781
50	0xbd039ab9	-0.032129977
51	0x3dad4abf	0.08461522
52	0x3e34db3b	0.17661755
53	0x3e35bdf2	0.1774824
54	0xbf5f279f	-0.8716983
55	0xbec5bdd7	-0.386214
56	0x3e7ef8e0	0.24899626
57	0xbfb13ebd	-1.3847271
58	0xbfb31072	-1.3989394
59	0x3d05e2b5	0.032686908
60	0xbe418ea1	-0.18902065
61	0xc012c58e	-2.2933078
62	0x3e36d1b3	0.17853431
63	0xbe426848	-0.18985093
64	0x3c7700ef	0.015075906
65	0x3e1a7607	0.15084086
66	0xbd835fb1	-0.06414736
67	0x3d3519dd	0.04421412
68	0x3cb2dd59	0.021834062
69	0x3dab2229	0.08356125
70	0xbef82058	-0.48462176
71	0xbe97677a	-0.29571134
72	0xbf605cab	-0.876414
73	0x3d58878b	0.05286364
74	0x3e35a9d6	0.17740569
75	0x3d846763	0.06465032
76	0xbf9e9fe4	-1.2392545
77	0xbcf5fb17	-0.030026956
78	0xbef0e6f8	-0.47051215
79	0xbe111f99	-0.1417221
80	0xbdc663e3	-0.09687021
81	0x3c36193c	0.011114415
82	0x3d8ef5cc	0.06980476
83	0xbf8f3b8b	-1.1190046
84	0xbfef3304	-1.8687444
85	0x3c416b35	0.011805345
86	0x3e3cd230	0.18439555
87	0x3e233d8c	0.15941447
88	0xbca9ada0	-0.020712674
89	0x3df891a0	0.12137151
90	0xbf5327d7	-0.82482666
91	0xbf93d11e	-1.1548193
92	0xbdbdcde0	-0.09267783
93	0x3c067b1c	0.0082080625
94	0xbc8e5c6e	-0.017378058
95	0x3e12eb26	0.14347515
96	0xbce2e717	-0.027698083
97	0xbc742890	-0.014902249
98	0xbe5b1e87	-0.21398364
99	0xbf2f9af8	-0.6859584
100	0x3db82f2a	0.08993371
101	0xbeb6b90f	-0.35688064
102	0x3d6114bd	0.05495142
103	0x3cf98514	0.030458964
104	0xbd84e0b0	-0.06488168
105	0x3db9925f	0.09061121
106	0xbe69ece9	-0.2284428
107	0xbb95a076	-0.0045662476
108	0x3e1bba7e	0.1520786
109	0x3dd2cc5d	0.102928855
110	0x3d8a9930	0.067674994
111	0xbf2e24cb	-0.6802489
112	0xbd1c371d	-0.038138498
113	0xbe346dc8	-0.17620003
114	0x3decbdd8	0.11559647
115	0x3e46bc2d	0.19407721
116	0x3dfa926c	0.12234959
117	0x3d476e8c	0.04868941
118	0xbdbc0563	-0.09180715
119	0x3da135d4	0.07871595
120	0xbe03f60c	-0.12886828
121	0x3e3a3605	0.1818467
122	0x3cc77d17	0.02435164
123	0xbf14a3e0	-0.58062553
124	0xbe290624	-0.16506249
125	0xbe25302a	-0.16131654
126	0xbd9161ca	-0.0709873
127	0xbf97219a	-1.1807129
128	0xbf2e64e6	-0.6812271
129	0x3c9c1568	0.019053176
130	0x3cc55f12	0.024093185
131	0xc001e6d2	-2.0297132
132	0x3e2ef06b	0.170839
133	0x3c425401	0.011860848
134	0x3ec8720b	0.39149508
135	0x3c41fcd2	0.011840062
136	0xc044f938	-3.077711
137	0x3fd8bdef	1.6932963
138	0xbe61f11e	-0.22064635
139	0x3a64be19	0.00087258365
140	0xbe0d133a	-0.13776866
141	0xbbc9a917	-0.0061541903
142	0x3f113051	0.5671435
143	0x402a66d3	2.662526
144	0x3cbc05fd	0.022952074
145	0x3d34d88a	0.04415182
146	0x3c8872a8	0.016656235
147	0xbed2ca7c	-0.41170108
148	0xc056ffa3	-3.3593528
149	0x3dc35aa5	0.095387734
150	0xbffd1add	-1.9773823
151	0x3ca318c5	0.019909272
152	0xbdad4a1e	-0.08461402
153	0x3c339683	0.010961178
154	0x402d0239	2.7032607
155	0x3f5f55bc	0.87240195
156	0x3f16ce63	0.5890867
157	0x3db57b79	0.08861441
158	0x3ec42062	0.38305956
159	0xbd075545	-0.033040304
160	0x3d8778ed	0.06614862
161	0x3e368ffd	0.17828365
162	0x3eaad777	0.33367512
163	0xbb390f46	-0.0028237863
164	0x3d0203ae	0.03174179
165	0x3e262a34	0.16227037
166	0x3dfa59cd	0.122241594
167	0x3dec1ed1	0.11529315
168	0xc0615d59	-3.5213225
169	0x402b3683	2.6752021
170	0x407c65c4	3.9437113
171	0x3fb6001f	1.4218787
172	0x3e41626f	0.18885206
173	0xc0077d4d	-2.1170228
174	0xbd311226	-0.0432302
175	0xbefbb8fc	-0.4916457
176	0x40695e7e	3.6463923
177	0xbe72d691	-0.23714663
178	0x40608396	3.5080314
179	0x3e0afdf1	0.13573433
180	0x3d89c070	0.06726158
181	0xc0524171	-3.2852442
182	0x3fbd07bd	1.4767987
183	0x3d96e86d	0.073685504
184	0xbde5ca17	-0.11220186
185	0x3d1da4f4	0.03848739
186	0xc07cecb2	-3.9519467
187	0x3d2364f4	0.0398912
188	0xbfa7eb0c	-1.3118606
189	0x3e806f02	0.25084692
190	0x403aaada	2.916678
191	0x3f90e1ac	1.131887
192	0x3e831667	0.2560303
193	0xbeb4a545	-0.3528234
194	0xbf00b80e	-0.50280845
195	0x3e8629a9	0.2620366
196	0xbf111199	-0.56667477
197	0xbea09b15	-0.31368318
198	0xc00bfa6e	-2.18716
199	0xbea3ae0f	-0.31968734
200	0x3d322166	0.043488882
201	0xbda32e22	-0.079677835
202	0x3d564fdf	0.052322265
203	0xbfcd26b6	-1.6027439
204	0xbf28a3c3	-0.6587488
205	0xbf69e749	-0.9136854
206	0x3e3d7af6	0.18503937
207	0xbf8a2dd0	-1.0795231
208	0xbdfc2e81	-0.123135574
209	0xbad7bd5f	-0.0016459635
210	0x3e0967a1	0.13418438
211	0x3d928728	0.07154685
212	0x3e818b5c	0.25301635
213	0xbf2c0100	-0.67189026
214	0x3d764593	0.060124945
215	0xbec7b6e6	-0.39006728
216	0xbea90af1	-0.3301616
217	0x3e502675	0.2032717
218	0x3dac08fd	0.08400152
219	0x3e8fad33	0.28061828
220	0x3e012b25	0.12614115
221	0x3e2c55db	0.16829626
222	0x3e199fb8	0.15002334
223	0xbf1c778f	-0.6111993
224	0xbe0502c6	-0.12989339
225	0xbe58d54b	-0.21175115
226	0x3e1a88d7	0.15091263
227	0x3e5777c3	0.21041779
228	0xbf1f59db	-0.62246484
229	0xbfe63948	-1.7986231
230	0xbf274f85	-0.6535571
231	0x3cecab53	0.028890288
232	0xbf32230f	-0.69584745
233	0x3e2b73a5	0.16743334
234	0xbe5f379b	-0.21798556
235	0xbe3deb4a	-0.18546787
236	0x3d4fc773	0.05072732
237	0xbf140312	-0.57817185
238	0xbec5e6a1	-0.38652518
239	0xbfbe9c44	-1.4891438
240	0x3da7809b	0.081788264
241	0xbe86eed3	-0.26354083
242	0xbe7ca097	-0.24670635
243	0xbf680ea4	-0.9064734
244	0xbe140fd9	-0.1445917
245	0x3e14908e	0.14508268
246	0x3d8f3926	0.06993322
247	0xbd89b6c3	-0.06724312
248	0xbed37e68	-0.41307378
249	0x3e691e52	0.22765473
250	0x3e1b6241	0.151742
251	0x3e571e57	0.21007667
252	0x3e23595d	0.15952058
253	0x3e80c57d	0.25150672
254	0xbf8a8d40	-1.0824356
255	0x3e94e7b7	0.29083034

linear.weight f4 [1, 64]
0	0x409d4cf2	4.9156427
1	0x4092005d	4.5625443
2	0xc092c307	-4.586307
3	0x409ee26b	4.965139
4	0x4098e4b5	4.7779183
5	0x40944d1c	4.634413
6	0xc08f5e62	-4.4802713
7	0xc093065d	-4.594527
8	0x40961278	4.6897545
9	0xc0971f58	-4.722576
10	0xc0943271	-4.6311574
11	0x409c4778	4.883724
12	0xc09a550a	-4.8228807
13	0xc09d2f23	-4.912004
14	0xc092a286	-4.5823393
15	0xc0982035	-4.7539315
16	0x4090efa4	4.529253
17	0x40919de9	4.550526
18	0x4094909c	4.6426525
19	0x40921e42	4.5661936
20	0x409742e1	4.726914
21	0x4092eaae	4.5911474
22	0x40974404	4.7270527
23	0xc0979287	-4.7366366
24	0xc0931ec6	-4.5975065
25	0x40955a13	4.6672454
26	0xc095b0f7	-4.677852
27	0xc09932b9	-4.7874417
28	0xc0940e71	-4.626763
29	0x4095f4cb	4.686132
30	0xc094622f	-4.6369853
31	0xc093795b	-4.608564
32	0xc090a691	-4.520333
33	0x40a1632a	5.043355
34	0xc0948f7a	-4.642514
35	0xc09815bf	-4.7526546
36	0xc091fdf1	-4.5622487
37	0xc0944152	-4.6329737
38	0x40976c73	4.7319884
39	0x409264da	4.574811
40	0x409d923a	4.9241
41	0xc098c4ca	-4.774022
42	0xc099f0b8	-4.8106346
43	0xc092a763	-4.582933
44	0xc0976208	-4.7307167
45	0x409829e2	4.7551126
46	0x40903359	4.506268
47	0x40963e04	4.6950703
48	0xc0974078	-4.7266197
49	0x40933c48	4.6011086
50	0xc0946f5d	-4.638594
51	0xc0940d9e	-4.6266623
52	0xc0958812	-4.67286
53	0x40979cfb	4.7379127
54	0xc09bda5f	-4.8704066
55	0x4091a888	4.5518227
56	0xc0962c0a	-4.692876
57	0xc0946394	-4.6371555
58	0x4099a98e	4.8019476
59	0x40943559	4.631512
60	0x4094df99	4.6522946
61	0xc098b722	-4.772355
62	0xc097ab27	-4.7396426
63	0xc097954e	-4.7369757
