models/006-gru-features.pt (torch, 57055 bytes, 5 tensors)

gru.weight_ih_l0 f4 [192, 5]
00000000: aac5 e63d 8ac6 8b3e e7ff c03b 5ca7 db3b
00000010: 5109 c8ba 59fc 8bbc 71c7 85bd 6469 11be
00000020: 0a0b b5be c86e 4fbe bc3d 063d ce54 5fbd
00000030: 8888 9f3a 42bc 4a3d 5d2a 543e aa9d 293e
00000040: 2644 af3d e2db 953d 0a66 56bc a00b 13be
00000050: a742 773e 0175 693e 72bb 443e a8d9 8a3d
00000060: 99d5 89bd e73c eb3c a5ea 35be e804 393d
00000070: d106 4c3b a200 4b3d 9cff 3c3d 1bd6 883d
00000080: cc0c c93c 59ca 91bd 2b61 2d3d e2fe e13c
00000090: 197d 433d 80f0 06bd cd41 1c3c e231 ff3c
000000a0: db8a da3d 3dca f7be c601 2c3d 882f f33c
000000b0: bcbe 8b3d 1696 9c3d 6be0 d63d 9937 a4bc
000000c0: 7f05 15bb 34ac eabd 7a6a 383e 9dd1 913e
000000d0: 0524 0e3d 4d6d 893c 010c 283e 4e4b 8a3d
000000e0: 3d40 afbe 7e4e 013d fa45 763c a0ad c73d
000000f0: c636 8b3d 3a3c d13c 4821 a53d 43db 453e
00000100: 481e 073e a90d 653e 1c84 2d3e 56b6 b93d
00000110: 863b b9bc fda2 08bc 0b5f 7d3c e472 963d
00000120: ed5e b2bd 9cac bd3c 9b50 b63d 6efb 363e
00000130: 02ff 4d3e ed99 96ba 58d0 e83c fde1 a9bc
00000140: bb11 f6bb 102f 033e cb73 b43d e937 dc3d
00000150: a6d2 473e 078c 023e b774 163d 7202 123e
00000160: ef11 5d3b 3643 573d 4d30 573e 6243 653e
00000170: dca8 d23d d539 df3a d775 66bc a068 2a3e
00000180: ffb0 8b3e 4941 8f3e c0cb 103d 1ed6 083d
00000190: 9718 ef3d e11d 6a3e c8eb 143c 4c93 b13d
000001a0: 829c 543d eaa9 66bc bbbd ba3d 1f22 1b3d
000001b0: fcb0 fd3d 8226 92bc aafa 5d3d 746b 4ebf
000001c0: ba83 763c 73a6 5d3d c530 573d ab98 0f3e
000001d0: 118b 10bd e349 ba3d 4a9d 42bd 35ed bd3d
000001e0: 022e 893c d032 183e 270c d73d 7426 09be
000001f0: 7e27 333e f692 5d3d d6d2 afbc 6154 1e3b
00000200: c35f 593e 5f79 c63d 6f95 cf3c 68c2 4bbd
00000210: 55f4 1bbe 222d c4bc 6007 073d 72d9 593d
00000220: 605b 43bd 24aa 133d 4ff4 6aba e126 603d
00000230: 0276 603e 3893 e03d a695 1a3d 9776 06bd
00000240: d162 673c 7146 0b3d 6aa6 b6bb bd9b 74ba
00000250: a27c 80bb 3732 72bb a082 e7bc 412e 873d
00000260: 5ae3 4c3b 241b 27ba 74a2 0d3b 4f6f f6bc
00000270: 7aa0 393a 0eae b1ba 9306 573a f42a 2838
00000280: af5d 903d 1f4b 06bf 258c a23b 4035 6ebb
00000290: d8af 3abc 59fc ed3b 2274 03be 914d 9d3d
000002a0: 6e34 063c 2570 43bc 510c 9d3d fd36 06bc
000002b0: bdc7 893e e089 a03d d344 3cbc 1c6a 58bc
000002c0: d4be ac3c 7c9d f43b 19e6 c93a 19eb 10bb
000002d0: 5227 4c3e b6da 3f3e f6fe 783e 863f 18bd
000002e0: 43ec f93c 2d58 853e 021f 653e d470 333d
000002f0: ae1f 4b3d d903 603d 6108 033d c2e1 b83d
00000300: a882 3c3d 06d0 a43d 334c 313d 2a01 bf3d
00000310: 10dd dabe 728a 6e3c 169b b5b9 4e3c fe3c
00000320: 7a66 0e3d 837d 073d 5913 683d e744 663e
00000330: 2170 b1bd e48f f73c b608 e1bb 4708 5bbc
00000340: 052b be3d ad70 963b 6ad0 583e a14d 433d
00000350: bfd3 043d 9490 0f3e 30e7 a33d 7581 603d
00000360: 6a06 0f3e c922 f73c 96f8 983c 8fc2 953c
00000370: e502 f13d 1bfb af3d 1128 e3bc 6cb6 473d
00000380: 22cb b8bd a1e3 773d 9f2d 5ebf e0ca 5f3c
00000390: b90d 943b ebcb c0bb 9c7b 133e 482a d03e
000003a0: 2940 223e bf21 0a3e 9e75 2ebd fe37 873d
000003b0: 63b0 973d 7c1b 4e3e 9451 183e a77b 1ebd
000003c0: b380 e43d 2024 d0be c7ad 853a 51d2 c03d
000003d0: e633 353e cf03 e93d d958 393e b20a 263e
000003e0: b010 903c e0f8 253e 3b6b 003d 4274 eabb
000003f0: 1384 1b3d f069 2d3d 25a3 153e 577e 9f3d
0.1126817 0.2729991 0.005889881 0.0067033004 -0.0015261566 -0.017088102 -0.06532181 -0.1420036
-0.35359985 -0.20257103 0.03277372 -0.054524235 0.0012171427 0.049495943 0.20719285 0.1656405
0.0855792 0.0731733 -0.013085851 -0.14359903 0.2414652 0.2279854 0.1921213 0.06779796
-0.06730194 0.028715564 -0.17765291 0.045170695 0.0031131993 0.04956115 0.046142206 0.066814624
0.024542235 -0.07118673 0.042328995 0.027587358 0.047726724 -0.032944202 0.0095371725 0.031151716
0.10671016 -0.48396483 0.04199388 0.02968575 0.06823489 0.07645814 0.10492023 -0.020046042
-0.0022738872 -0.114586264 0.18009368 0.28480235 0.03470232 0.016775751 0.16410829 0.067526445
-0.34228697 0.031568997 0.015031332 0.09749913 0.067975566 0.025541414 0.080629885 0.19321923
0.13195145 0.22368492 0.16944927 0.09067981 -0.02261139 -0.008339641 0.015464555 0.073461324
-0.08709512 0.023153596 0.08902093 0.1786935 0.20116809 -0.0011489965 0.028419659 -0.020737642
-0.007509438 0.12810922 0.08811148 0.107528515 0.1951395 0.12748729 0.0367324 0.14258745
0.0033732613 0.05255433 0.21014519 0.22388986 0.102861136 0.0017030785 -0.014066181 0.16641474
0.27283475 0.27979496 0.03535056 0.033407323 0.11674612 0.2286296 0.009089418 0.08670673
0.05190707 -0.014078597 0.091182195 0.037874337 0.12387273 -0.017840628 0.05419413 -0.8063271
0.0150460545 0.054113816 0.052536745 0.14023082 -0.035288874 0.09096124 -0.047513284 0.09273759
0.016745571 0.14863133 0.10500365 -0.13393575 0.17495534 0.05409523 -0.02146284 0.002415918
0.21227936 0.096911184 0.02533981 -0.049745947 -0.15229924 -0.023947302 0.032966018 0.053185888
-0.047694564 0.03605093 -0.00089627964 0.054724578 0.21920016 0.1096558 0.037740372 -0.03282794
0.014122681 0.034002725 -0.0055740373 -0.0009331068 -0.0039211074 -0.00369562 -0.028260529 0.06600619
0.0031263442 -0.00063745887 0.0021611722 -0.030082373 0.0007081103 -0.0013555901 0.0008202579 4.0094325e-05
0.07049119 -0.52458376 0.004960554 -0.0036347657 -0.0113944635 0.007262748 -0.1283727 0.0768081
0.008191211 -0.011928593 0.07668365 -0.008191821 0.269102 0.078387976 -0.011491018 -0.013208892
0.021087088 0.0074650627 0.0015403657 -0.0022112785 0.19936875 0.18735775 0.2431601 -0.037169956
0.030508166 0.26043835 0.2237511 0.043808773 0.04959076 0.05469117 0.031990413 0.09027435
0.04602304 0.0804749 0.04328556 0.09326394 -0.42746782 0.014559375 -0.00034638558 0.031034615
0.034765698 0.03307868 0.056659076 0.22487222 -0.08663965 0.03021998 -0.0068674935 -0.013368673
0.09285549 0.0045910687 0.21173254 0.047681455 0.0324285 0.14019996 0.0800308 0.05481096
0.1396729 0.030167954 0.018673223 0.01828125 0.1176813 0.085928164 -0.027729066 0.048757955
-0.090231195 0.06051982 -0.8678836 0.013659209 0.0045182374 -0.005883684 0.14402622 0.40657258
0.15844788 0.13489436 -0.042592637 0.066024765 0.0740669 0.20127672 0.1487487 -0.038692143
0.1115736 -0.4065256 0.0010198884 0.09415115 0.17695579 0.113776796 0.18100299 0.16215017
0.017586082 0.1620822 0.031352263 -0.0071549723 0.037967753 0.042337358 0.14613016 0.07787769

gru.weight_hh_l0 f4 [192, 64]
00000000: 896c cf3d d5df 753e c4ef 3e3e f383 61be
00000010: db2b abbe 1e55 76be 9d38 0bbe a999 acbe
00000020: 9b12 b1be dbe7 77be 424e b33e 120b 353e
00000030: 11fc a7be c005 09bf e46a 553e d581 663e
00000040: 022c 3c3e 92e6 1f3e 27cb 58be b54f bf3e
00000050: 5e1b 793e 8799 673e 6566 a7be 2674 2f3e
00000060: 0e90 aabd 3f72 7ebe 9305 3c3e a491 6c3e
00000070: 241f dabe 2559 a03e c9d2 c03e 8e1c 8c3e
00000080: 770a ea3e 5665 a3bd ff91 85be 8fc9 b6bd
00000090: 0a2d 0c3e a7b2 f13e 813e cb3e 301b a53e
000000a0: 6fd8 153e 5c3a 933e 746b b4be cab8 d7bd
000000b0: d9bc 45be 9c95 9cbe ad48 a03d eaeb 9cbe
000000c0: 9ccb b23e 06b6 a43e 3833 c13e b22a 30be
000000d0: 728b 983e 855d 56be cb08 69be 9f78 443e
000000e0: 6b8f 313b bf76 8d3e e474 143e 4584 d33e
000000f0: 6d9d 5c3e 46d9 6b3e 304b 4a3e b347 87bd
00000100: ab80 e4bd f29a 98be a6f4 a93c c800 27be
00000110: b4df 793d 45c2 873e 67ce ad3e 5c73 fabd
00000120: e4bc 6d3e cf27 83be c2b4 e13d f206 fdbd
00000130: 1070 d73e 2541 2c3e 1deb abbe 0439 cfbd
00000140: ddbf 4ebe a4fb 843e e8f7 a83e 72a3 6b3e
00000150: 038e 33be b857 35be 8f40 6e3e 5501 3b3e
00000160: 88a7 993e 4235 443e 337e 17be 1ec8 52be
00000170: 5972 823d ea27 25be f872 7a3e 4afe 093e
00000180: 338a a83e ed4f dd3e 8b1a 163e 0b81 a83e
00000190: bb8e 143e aa09 17bd 10ab 44be 39e0 6e3e
000001a0: f5cf c5be 1e77 923e f2d1 a03e e82d c43e
000001b0: ee5e 49be b886 a2bd 51e5 893e 00ef 8c3e
000001c0: b710 c3bd 4f83 0c3d 49ab 91bd 75b5 cb3e
000001d0: 4765 ebbe 14e4 893e 43c1 f5be a962 63be
000001e0: 6e2b 70be aba3 413c b474 e6be 1422 c7bd
000001f0: cbb7 27be 4af4 31be c9bd 87be 18e3 e73e
00000200: a8ae d5bd c0e7 50be a5b2 593e 3b54 0fbe
00000210: 6383 173c d607 4c3e 72e7 713e 9a72 54be
00000220: 9abd b03d 71d5 f3bd 3826 163d e71e 2bbe
00000230: 6a77 153e a73b 8dbc 8309 2cbe e7e2 28bd
00000240: 26e2 e6bd d167 183c 4b35 c13d 82ab a03d
00000250: 4d3f d8bd 473b 71be 7905 48bd 7350 cc3d
00000260: 8609 2d3e b4cf 82bd 1613 0fbe e072 dbbd
00000270: e95e 2f3e d4b1 57be 79a9 313e 2ea0 0c3e
00000280: 2999 c43c 9ea4 a73e 250f 5abc 1a43 a13e
00000290: a1cd 223e c991 23be 90ee 05be 251c 0c3e
000002a0: accb f0bd 8b3e 623d 8856 203c 4d22 483e
000002b0: 2bd0 fcbd f882 f7bc 76c4 873e fccb 0c3e
000002c0: e6c3 f4bd aa8e 653d af0b b2bd 77b0 033e
000002d0: 7ef1 76be a96c c23d d45b 99bd 1cc7 5ebe
000002e0: 38c0 e8bd d5d9 453e 0421 9dbe 6f0d 83be
000002f0: b2e9 98bd 6f7c b6bd f790 79be e44f 553e
00000300: 7a7c 9fbd 213b 5cbe c696 143e eb59 8fbd
00000310: 95c6 9d3d beac b53d 9b25 303e 72ad a3bd
00000320: 44f7 183e be27 2abc f436 38bd 103a 17be
00000330: 45b3 fa3d b0f8 1f3e f2dd cbbc ca6f 0a3d
00000340: d72e dcbd 93e9 c83c a068 1b3e 2d2d 80bd
00000350: ee47 ee3a 47dc 4dbe 6739 5c3e 45cd 24be
00000360: 4b77 603e 7cab 883d 7569 a3bc acb0 20be
00000370: 4e31 1d3e 3a74 d6bd abcb 2f3e d8ca 31be
00000380: 8fa1 51bd 6727 5a3e 1eee 823c 69f2 0a3d
00000390: b0d7 b2bd c1b5 cabd a715 0abe 079e 9c3d
000003a0: 257a 46be dc0f 5c3d 38ea b73d 304e 6e3e
000003b0: 0229 20bd c8cf 483e 5fd6 243e 899d 1d3e
000003c0: 8751 8bbd e479 f83c dbbb f5bd f590 143e
000003d0: cd54 8cbd 928d 763d 24be c6bd 52c4 54be
000003e0: 7830 d23d 5de4 963c 6213 4bbe ad21 83bd
000003f0: cd00 60bd 538b 1bbe b372 6ebe 3d24 763e
0.10128123 0.24011166 0.18646151 -0.22022991 -0.33431897 -0.24055907 -0.13595815 -0.33710983
-0.34584507 -0.2420954 0.35020643 0.17680004 -0.328095 -0.535244 0.20841557 0.22510464
0.18376163 0.156153 -0.21171246 0.373655 0.24326846 0.2261716 -0.32695308 0.17134151
-0.083282575 -0.24848269 0.18361501 0.23102432 -0.42601883 0.31318012 0.37660816 0.27365535
0.4571111 -0.07978313 -0.2608795 -0.08925163 0.13689056 0.47206613 0.39696124 0.32247305
0.14633344 0.28755462 -0.3523823 -0.105332926 -0.19310321 -0.30582893 0.07826362 -0.30648738
0.34920967 0.32170123 0.3773439 -0.17203787 0.29793888 -0.20934112 -0.2275726 0.19186638
0.002709354 0.2762966 0.14497715 0.4131185 0.21544428 0.23032102 0.19755244 -0.066054724
-0.11157354 -0.29805714 0.02074654 -0.16308892 0.061004356 0.26515403 0.33946535 -0.12229034
0.23216587 -0.2561631 0.11020805 -0.1235484 0.42077684 0.16821726 -0.33577815 -0.10118297
-0.20190378 0.25973237 0.33001637 0.23011568 -0.17534642 -0.17709243 0.23266815 0.18262227
0.3001063 0.19160941 -0.14794235 -0.20584151 0.06369466 -0.16128507 0.2445792 0.1347591
0.32917938 0.4322504 0.14658563 0.32910952 0.14507572 -0.03687445 -0.1920588 0.23327722
-0.3863522 0.28606504 0.31410176 0.38316274 -0.19665119 -0.07935852 0.26932767 0.27526093
-0.095246725 0.034304913 -0.07112748 0.39786878 -0.45975706 0.26931822 -0.4799901 -0.22205605
-0.23454067 0.011818807 -0.45010912 -0.09723297 -0.16378705 -0.17378345 -0.26511982 0.45290446
-0.10433704 -0.20400906 0.21259554 -0.13996975 0.009247634 0.19924864 0.23623446 -0.20746842
0.08629914 -0.11905945 0.036657542 -0.16711007 0.14596334 -0.017240359 -0.16800503 -0.041232016
-0.11273603 0.0093020955 0.09433993 0.078452125 -0.10558949 -0.23557769 -0.048833344 0.09976282
0.16898164 -0.063872725 -0.13972124 -0.1071527 0.17126049 -0.2106393 0.17349805 0.13732979
0.023998814 0.3274278 -0.013309275 0.31496507 0.15898754 -0.15973581 -0.13079286 0.13682611
-0.11757597 0.055235427 0.009786256 0.19544335 -0.123443924 -0.030213818 0.26517075 0.13749689
-0.11951427 0.05604426 -0.08693635 0.12860285 -0.2411556 0.094933815 -0.07488218 -0.21755642
-0.11364788 0.19321378 -0.3068925 -0.25596187 -0.07466449 -0.089104526 -0.24371706 0.20831257
-0.07787414 -0.21506931 0.1451064 -0.06999572 0.07703892 0.088708386 0.17201845 -0.079920664
0.14938074 -0.010385452 -0.044974282 -0.14768243 0.12241224 0.1562221 -0.024886105 0.033798017
-0.107511215 0.02452544 0.1517663 -0.062586166 0.0018179396 -0.2010356 0.21506272 -0.16093929
0.21920507 0.06673333 -0.019947747 -0.15692395 0.1535084 -0.10471387 0.17167537 -0.17362535
-0.051179465 0.21304093 0.015982684 0.033922587 -0.087325454 -0.09897948 -0.13484822 0.07647329
-0.19382532 0.053726062 0.089802206 0.23272014 -0.039101608 0.19610512 0.16097401 0.15392126
-0.068026595 0.03033156 -0.11998721 0.14508422 -0.06852112 0.060193606 -0.09704235 -0.20778015
0.10263151 0.018419439 -0.19831613 -0.064029075 -0.054688264 -0.15189867 -0.23285942 0.24037261

gru.bias_ih_l0 f4 [192]
00000000: d1c0 31bd 700d 01be ac34 c43c ffa1 783e
00000010: bc02 103e 07c9 8d3d 66ec ca3b fd1a 2e3d
00000020: cb37 19bf ce91 103e 4638 343e 6086 bdbe
00000030: 8aa8 803d f1a0 263e c50a f6bb b50f 063e
00000040: 7772 dd3c dcde 533e 1d84 a63e f360 d73e
00000050: 2364 8b3d 5893 443d 4daf eebe 8338 1d3b
00000060: e696 33bc ebe1 d03d aa83 ae3d ba40 863d
00000070: 22a2 4f3e 49f8 4b3e 35ba 773e c2a8 a83e
00000080: 4bce 14bf e84e 9b3d 1d4d 8c3d 57d4 363e
00000090: f0b2 933c 6ed3 563e 7208 273e 942a b93d
000000a0: 7d79 0e3e c3aa 873d f7bd 2d3e 1e3a 443e
000000b0: ea1b ba3d 767b 2abf 0549 293d 53a3 b43d
000000c0: e8d7 d8be 5ee6 0f3e 9e63 103e f5fa b63d
000000d0: b563 b8bb a1c2 8c3d ca69 553c 41e8 a63d
000000e0: 2212 0b3e 4a68 5d3e ee5b 333d c27d d8bd
000000f0: 56ff af3d cad1 ef3c e13f b1be db58 94bd
00000100: daea 24be a736 673f 5e76 1ebe 5944 34be
00000110: 5f52 3cbe bd5f c0bc 7a5a c93d 359c 40be
00000120: d00e a0bd 64cb 25be 9a34 1abe b0ff 4fbe
00000130: ce79 ac3e fb28 00be 6058 673f 6b45 e0bd
00000140: a51d 0fbe 27d6 4b3f 0844 1dbe 567a 38be
00000150: aa7b 1dbd 5369 a03f 64f1 b3bd 3c13 33be
00000160: 3f4d dcbd f10e 71be d177 213d 2751 473e
00000170: 6604 24be e858 593c 5d2c 8ebd 2d4d dcbd
00000180: f12a 3bbe cb35 c1bd 3a9d 6cbe baeb 9f3c
00000190: c5d9 bf3f 5c42 ba3d 42e1 a13f bf84 e2bd
000001a0: 8f75 3a3e 15ed 12be d2b9 4abe bf7c 3fbe
000001b0: 5503 c33f 52d6 65be 6e21 563f 3666 c03d
000001c0: afdd 0cbe c90e b53f 6381 933f 8d22 75be
000001d0: 0670 0fbe cdac 0bbe 451b 3bbe dd16 45be
000001e0: be08 ae3e 8e72 4abe 1b09 c9bd 4b7a b53f
000001f0: a8fa 6cbe 1be4 85be 5f3d 8cbe 874e d1bd
00000200: bbc3 bf3f cffb 16bd 2313 d5be fd7c 4f3e
00000210: 523f 3fc0 6c7f 03bd 15f2 c4bc 8c06 ae3e
00000220: ae2d acbf 7363 323d 2ce5 f93f 3a0f 7a3f
00000230: 09c3 af3d 86e9 5dc0 6198 3fbe f422 1040
00000240: a00a d53d d400 acbe eacd 50c0 9cac 6240
00000250: ebd4 3f40 af00 173c 1de7 1cc0 7e94 fbbe
00000260: 9bd0 533d f645 4fc0 1801 16be f9e0 b0bc
00000270: 6288 57c0 266b 3cbe 5098 b6bd de5a aebe
00000280: f854 ab3f 9567 eabc 7cc4 ecbf 1dbb cdbe
00000290: 41f2 81be b133 2340 3bf0 413d fa08 9ebe
000002a0: 12ed ce3d fdc0 19be ba55 71c0 088d 2b3d
000002b0: 1f6a 7c3e db85 bfbf a845 cdbe 963e bd3d
000002c0: e3f5 9d3f 2af0 06bf 9e69 d8bd 42a6 0cbf
000002d0: c0f2 89bd 14b6 07c0 b543 543e a74b a1be
000002e0: 15d0 cb3f c190 acbe 42c7 f2bd 3610 fdbc
000002f0: 22e7 5bbd ef3c 5c40 ce03 543f dd10 073e
-0.043396775 -0.12602782 0.023950897 0.24280547 0.14063543 0.069231085 0.0061927317 0.042506207
-0.5985076 0.1411812 0.17599592 -0.37016582 0.06282146 0.16272332 -0.007508608 0.1309193
0.02703212 0.20690483 0.3252267 0.42066154 0.06806209 0.04799208 -0.4661812 0.0023989982
-0.01096127 0.101993404 0.08521207 0.06555314 0.20276693 0.19918932 0.24192126 0.32941252
-0.5812728 0.075834095 0.06850646 0.17854439 0.01802966 0.20979092 0.16311815 0.09041324
0.13913532 0.06624367 0.16966997 0.19162795 0.090873554 -0.66594636 0.041329402 0.08820214
-0.42352223 0.14052722 0.14100501 0.08934585 -0.0056271204 0.0687306 0.01302571 0.08149768
0.13581136 0.21621814 0.043788843 -0.105708614 0.08593623 0.02927484 -0.34619048 -0.0724351
-0.16105214 0.9031777 -0.15474841 -0.17604198 -0.18390797 -0.023483152 0.0983171 -0.18809588
-0.07815325 -0.16190869 -0.15059128 -0.20312381 0.3368668 -0.12515633 0.90369225 -0.109507404
-0.13976152 0.79623646 -0.15357983 -0.18015417 -0.038448013 1.2532142 -0.08786276 -0.17487806
-0.10756921 -0.23540856 0.039420906 0.19464551 -0.16017303 0.013265826 -0.069420554 -0.107569076
-0.182781 -0.09434088 -0.23106852 0.019521583 1.4988333 0.09094688 1.2646868 -0.110604756
0.18208908 -0.14348252 -0.19797447 -0.1869993 1.5235392 -0.22445038 0.8364476 0.09394495
-0.1375644 1.4145137 1.1523861 -0.23938961 -0.14007577 -0.13640137 -0.18272121 -0.19247003
0.33991045 -0.19770262 -0.0981619 1.4177946 -0.23142493 -0.26150593 -0.27390572 -0.10220056
1.4981607 -0.036861237 -0.41616163 0.20262523 -2.9882398 -0.03210394 -0.024041215 0.3398937
-1.345144 0.043551873 1.9523063 0.97679484 0.08582122 -3.4673781 -0.18710472 2.2521334
0.10402417 -0.33594382 -3.262568 3.5417852 2.9973705 0.009216472 -2.451606 -0.49136728
0.051712614 -3.238645 -0.14648855 -0.02159165 -3.3676991 -0.18400249 -0.0891577 -0.340537
1.3385305 -0.028613845 -1.8497462 -0.4018182 -0.25380138 2.55003 0.047348242 -0.30866224
0.10103811 -0.15015025 -3.7708573 0.041882545 0.24649857 -1.4962724 -0.40092206 0.09240453
1.2340664 -0.5271021 -0.1056702 -0.5494119 -0.06735754 -2.1204882 0.20728953 -0.3150303
1.5922877 -0.33704188 -0.11854412 -0.030891519 -0.053687222 3.441219 0.82818305 0.13190027

gru.bias_hh_l0 f4 [192]
00000000: e89b 24be 7318 09be 0c46 86bd 577a bc3d
00000010: 38f2 373e 418d 70bd 1fba 5d3d 5c90 443d
00000020: c300 fabe 77fd 5c3e c4c3 8a3d ac83 1ebe
00000030: e2eb dbbd c5c6 6d3e d8ee 78b9 c9ca 943e
00000040: 94b7 bbbd 5bcf e03d 2701 273e 2f3f 8e3e
00000050: b885 393e 6f4b d73d 6386 a5be e720 2a3d
00000060: a9f4 c73d 1718 673e 9b3f c23d cfca e9bc
00000070: d08d 8e3d 797d 2cbd ce5c f43d 371a 5b3e
00000080: 4f88 2abf f8c9 bebc f9f7 c6ba 2db1 403e
00000090: a740 25bd dcaf 3f3e 05a3 8e3d 45f6 04bd
000000a0: 03c7 6b3d 2e1c d93d f732 713d 7ead 3dbd
000000b0: 0857 b93d ed8b 1bbf efea 5fbd 7fcf ffbc
000000c0: bcda 74be bf8c 563e 65b7 923c 3e3c d53d
000000d0: f920 1c3e ab92 cd3d 8f2b 863c fceb 6b3e
000000e0: e538 883e eafc c93e eeba abbd 5143 57be
000000f0: cde6 0d3c b00e f43d 8935 15bf 2f39 063e
00000100: 2f64 34be b911 513f 215e dbbd 5c77 45bd
00000110: 8046 75be 2785 08be 7c80 bcbc 7880 30be
00000120: 17ff 22bd f733 46be 9143 98bd b862 8ebb
00000130: 0b07 3d3e 8fca 1fbe 79a9 3f3f 743e 64be
00000140: 6636 a0bd 298d 7f3f 1315 d9bc 461c 9fbd
00000150: 85a3 1fbd e13e 8b3f 765b 17be 8336 a03c
00000160: 77f7 afbd 599a afbc ecd6 01bc 4a53 153b
00000170: a34c 1ebe 8e75 303c 6320 3dbe de9c cabd
00000180: ba7a 46be 5bb2 2cbe 24bf 9abd b5ec 29be
00000190: f2a5 a03f 5586 2f3e 6231 9a3f 8588 22be
000001a0: b924 5d3e b7d0 17be b637 a2bd d308 63be
000001b0: 39a7 cc3f 7daa f7bd 56eb 873f c361 fcbd
000001c0: 2f44 eabd 0161 ad3f 4513 953f c82f a6bd
000001d0: 5779 c1bd f07f aebc a46e 8abe 0ddf f8bd
000001e0: 5eaa d63e 0b97 4bbd 80b4 79be a087 a13f
000001f0: 6aba efbd da75 12be 1c35 7dbe bb04 f0bd
00000200: ea2a c43f dc8f 3ebe e64b bebe 2fe3 513e
00000210: ef53 42c0 1735 5f3d 46f3 a43d 13c6 ea3e
00000220: 62d2 76bf 7be5 1c3d 4512 0740 f525 7e3f
00000230: ae7b 2c3e acb6 5dc0 2371 5abe bbd7 1040
00000240: 0df4 b03e 9ae3 5dbe f725 55c0 fff2 6240
00000250: 19bc 3640 bc13 36be 7954 1dc0 1e18 f8be
00000260: a77b 013e 9ca6 44c0 6dcd 15bd 8e4a 7cbd
00000270: 7038 55c0 52c2 55be e4f3 b4be 4338 f4be
00000280: 7ba1 a33f c1fc af3d 3365 e6bf 1c1b 2cbf
00000290: c08a c1be de1a 2840 aefc 05be 22fa 7cbe
000002a0: 88bb f8bd 2869 13be e91c 6fc0 f7fc 1ebd
000002b0: 90b4 5b3e 98fc cfbf f1eb f0be f641 7e3e
000002c0: 7888 b03f db16 27bf 176b 46be a0a0 ca3e
000002d0: 649d f9bc 97d9 02c0 f062 c13d 998a 8bbe
000002e0: 3548 d43f 86d6 0dbf 8b69 23be 6ef2 edbc
000002f0: c5af 6bbe 017c 5c40 dbce 473f 5401 6d3e
-0.16075099 -0.13388233 -0.06556329 0.09203022 0.17963493 -0.05872846 0.054132577 0.047989234
-0.48828706 0.21581064 0.067756206 -0.15479916 -0.107383505 0.23220356 -0.000237401 0.29060963
-0.09165874 0.1097705 0.16309033 0.2778258 0.18117416 0.10512435 -0.3232909 0.041535284
0.09763462 0.22567783 0.09484788 -0.02853909 0.06960642 -0.042111848 0.119317636 0.21396719
-0.6661424 -0.023289666 -0.0015180103 0.18817587 -0.04034486 0.18719429 0.06964687 -0.032461423
0.05756284 0.10601078 0.058886494 -0.046308033 0.09049803 -0.60760385 -0.05466741 -0.031226872
-0.23911566 0.20952128 0.017909715 0.10411881 0.15246953 0.1003774 0.016378192 0.2303924
0.26605907 0.3945077 -0.083852634 -0.21021773 0.008660984 0.11916864 -0.58284813 0.13107751
-0.17616342 0.8166767 -0.10711313 -0.048209533 -0.23952675 -0.13332044 -0.023010485 -0.17236507
-0.039794054 -0.1935576 -0.07434762 -0.0043452643 0.18459718 -0.15604614 0.7486797 -0.22289449
-0.07822876 0.9982477 -0.026499307 -0.077690646 -0.038974304 1.0878564 -0.14780983 0.019557243
-0.08592122 -0.021435903 -0.0079247765 0.002278524 -0.15458922 0.010770215 -0.18469386 -0.09893201
-0.19382754 -0.16864912 -0.075559884 -0.16594203 1.2550642 0.17141087 1.204632 -0.1587239
0.2159604 -0.14825712 -0.07920782 -0.22171335 1.5988532 -0.12093065 1.0618694 -0.12323334
-0.11438786 1.3545228 1.1646506 -0.08114582 -0.09446972 -0.02130124 -0.27037537 -0.121519186
0.41926855 -0.049704593 -0.24385262 1.2619514 -0.117054775 -0.1430277 -0.24727291 -0.11719652
1.5325596 -0.18609565 -0.3716728 0.2049682 -3.036373 0.05449399 0.08054213 0.45854244
-0.9641477 0.038304787 2.11049 0.9927667 0.16844055 -3.4642744 -0.2133222 2.2631671
0.34561196 -0.21668854 -3.3304422 3.5460813 2.8552306 -0.17780966 -2.4582808 -0.484559
0.12644826 -3.072669 -0.036572862 -0.06159454 -3.3315697 -0.20874909 -0.35342324 -0.47699174
1.2783655 0.08593131 -1.7999634 -0.67228866 -0.3780117 2.6266398 -0.13084671 -0.24704793
-0.12145144 -0.14395583 -3.7361395 -0.038815465 0.21455598 -1.624896 -0.4705501 0.2482985
1.3791647 -0.6526925 -0.19376789 0.39575672 -0.030470558 -2.0445306 0.09442699 -0.2725418
1.6584536 -0.5540546 -0.1595823 -0.029046264 -0.2301627 3.4450686 0.7805001 0.23145038

linear.weight f4 [1, 64]
00000000: bb2a 91c0 c8a4 8cc0 bfef 8f40 58f6 93c0
00000010: a162 9340 7461 8e40 e104 8f40 e5da 91c0
00000020: c93b 9940 4852 94c0 a8e6 92c0 c294 90c0
00000030: 12bb 8f40 fdd0 9c40 1fbf 8fc0 d29b 97c0
00000040: c697 95c0 8f5a 8f40 2d71 9140 f538 99c0
00000050: 84bd 97c0 17c0 8bc0 7eec 9840 2a3b 9340
00000060: 3313 9440 eb53 9840 f0a8 90c0 d15a 8ec0
00000070: 1d6c 9340 8de5 8dc0 3b9e 9540 fc24 9440
00000080: 5a38 96c0 b54e 8e40 bc9c 9740 2374 9040
00000090: 59c9 9040 bc71 8dc0 5b15 90c0 0e1c 9240
000000a0: ab2b 90c0 14ec 9340 dbfe 9840 93ef 9440
000000b0: 2c18 90c0 e8fc 9740 2099 9140 a73f 8d40
000000c0: dfd0 90c0 d4fb 8f40 0fac 8cc0 bc8d 8f40
000000d0: 1217 8fc0 fd87 9a40 a8c1 93c0 7301 99c0
000000e0: 7ce2 90c0 de29 9040 3262 93c0 20df 8ec0
000000f0: e2f0 96c0 03b1 99c0 c71b 96c0 8e84 9040
-4.536466 -4.395115 4.498016 -4.6238213 4.6057897 4.449396 4.4693456 -4.5579705
4.788548 -4.635044 -4.5906563 -4.518159 4.4915857 4.9005113 -4.49208 -4.737771
-4.674777 4.4798045 4.5450654 -4.788203 -4.741884 -4.3671985 4.7788687 4.600972
4.6273437 4.760244 -4.5206223 -4.448586 4.6069474 -4.4342713 4.6755652 4.6295147
-4.694379 4.447108 4.7378826 4.514177 4.5245786 -4.4201336 -4.502607 4.5659246
-4.5053306 4.622568 4.7811103 4.654245 -4.5029507 4.7496223 4.549942 4.41402
-4.525497 4.4994907 -4.3960032 4.4860516 -4.471566 4.8291 -4.6173897 -4.781427
-4.527647 4.5051107 -4.6057367 -4.464737 -4.7169046 -4.802858 -4.690891 4.516181
