models/014-rnn_hs_128_3.pt (torch, 72354 bytes, 5 tensors)

rnn.weight_ih_l0 f4 [128, 5]
00000000: 761d 3bbd 7747 84bd f982 20bd 0594 64bd
00000010: 078f 013c 91a0 12be ff66 2d3d fee9 2e3d
00000020: 9b1d 233c 262f 183d a93c c5bc 20a4 553d
00000030: 85d1 9dbd a66a b1bb 56e5 8dbd 0e88 893d
00000040: c24f 4bbd f447 8d3d 1866 503d 9357 093d
00000050: ab58 0e3e 6451 1ebd a65c 6c3d bf2d 1abd
00000060: abc1 acbc 13c3 01be 1024 2fbd a9f1 c03c
00000070: 957e 6cbd 26be 48bd b860 403b a477 733d
00000080: 8c0c 8cbd 41ff 63bd 4288 94bd 1398 bdbd
00000090: 33eb dfbc 3eb1 97bd f6d9 bfbc c5f7 8cbb
000000a0: 5d07 e6b9 b981 83bc 902b b5bc 9620 48bd
000000b0: b3f7 243d 8403 bb3d 3de4 4ebd 3f99 94bc
000000c0: eed2 cbbb b278 233d 4881 233e 21f5 cdbc
000000d0: a0d8 a5bb fcaa 4f3d 1050 df3c d266 233d
000000e0: 0516 e4bc 41ad 743d b4c2 e43c e7cc e5bc
000000f0: 9c5f 133d ed6b 93ba 146d a0bd 8b39 c5bc
00000100: dc51 86bd 5c29 febd 830c 98b9 7b76 2ebd
00000110: 84f2 aa3c ec44 ad3c 228c e83d ea54 a03d
00000120: d7ca ebbc 439b f2bb c2c1 d43c 739d f73d
00000130: 0f33 863c ec0a 7b3d c09f 403c 2166 063d
00000140: e6a1 c7bd cc6c adbd b003 95bd 55f9 e43a
00000150: 511a 943d 480b 17be 7670 e93c 7f66 70bd
00000160: 3b50 48bd a3c1 82bc 4050 cebc e868 a23c
00000170: 4072 73bd 631a 8c3d 5de1 1fbb 4022 56bd
00000180: 582c 92bd 7cbb 493d 3e8b 88bc b642 e7bc
00000190: d859 80bd 6be1 aa3c 7e9a 833a 9117 bfbc
000001a0: 8bdb a03a 5a24 6cbd 0798 febc 05f7 a2bc
000001b0: 83a7 343d 31f3 67bd d4f3 37bd 4e85 253d
000001c0: e2d6 75bd 606c 15bd 0e1a 5ebd 811b 39be
000001d0: ca52 863d 49f6 933d 27bb 9e3a 21ed 5a3d
000001e0: 73a3 c03d e130 9ebd 5537 88bd fd07 1abd
000001f0: c350 9dbd 5d5b b1bd 1ab4 843c 889c 6a3b
00000200: 1f10 e8bb 95e7 3cbb 7fa3 903d 9b2b 9b3b
00000210: 03d3 033d ee67 f7bb 2158 67bd 05f8 c7bd
00000220: e146 f83c f037 e33c d195 66bd 4f91 a5bb
00000230: 7e9a 13be 64e4 78bb 8e51 523c b579 c93c
00000240: 9e56 a3bc 7b5a 89bd 4942 893c 45f5 63bd
00000250: 5850 6c3c 6183 443d 513b 27bd 5f11 c23d
00000260: c958 723c d398 b63d a504 913d ff9d 3b3b
00000270: 5880 9b3d b65b a13c d3b3 213c e3a1 babc
00000280: 5c97 19be c5c4 013c bd17 923c 9aae d23c
00000290: ee47 1dbd db1a 14be c1e8 1f3d 9465 82bc
000002a0: 661c 57bc 1ab9 5ebc 2051 6e3d dd12 a53c
000002b0: 5927 bebd 5e56 ff3c 6fb4 823c 7abb 903d
000002c0: a478 1cbd 404e 483d 4ec5 283d bce0 9cbc
000002d0: c362 153d 948e 493b 613b 8f3d fb2e c63d
000002e0: 8eac c53c 9dd1 c73d a170 183d d947 2b3d
000002f0: 533d 18bd 2cb1 ae38 8bba ed3d c0e2 78bd
00000300: 0771 6abd fa36 1a3a d01c 983c c834 eb3d
00000310: 6278 443c 99d1 773c 8cfa cfbc 001e 3a3d
00000320: dc2a 1dbe fc61 4d3d f768 093d 6920 2c3d
00000330: 889d 4d3d 5ec9 08be 9ffb 623d e24d 83bd
00000340: 61d1 fd3c 596b e8bc b28c 883b 6f2c 52bd
00000350: bdea b03d bc4e 843c a4c6 11bd 9fe8 81bd
00000360: 2d73 6e3c 6fa0 bebc c1f8 e73c 8c21 663d
00000370: 0893 dcbd 089e adbd 3180 6f3c c8e5 073d
00000380: 5002 0e3d c80d d53d a4d3 29bc e480 eb3c
00000390: 2ae2 393d 50d3 7ebd bea3 a7bd 6af1 6d3d
000003a0: 7e7e 823d e43e 5c3d b901 5e3c 1df6 d23d
000003b0: 25a7 9dbd 3881 6e3b 0448 b73c 2af9 533d
000003c0: 74b7 f33d f727 843d e3bf 85bd f230 15bc
000003d0: c697 6d3c a6f8 0cbd 7190 373c e452 873d
000003e0: e29a 6ebc 1c4c eebb 4079 0f3e 3bfb 8a3d
000003f0: b401 193d 062b 1bbd c3c0 ec3b 5aed 4cbe
-0.045682393 -0.06458943 -0.039187405 -0.055805225 0.0079076355 -0.14319064 0.042334553 0.04270362
0.009955789 0.03715434 -0.024076777 0.052158475 -0.07705978 -0.005414325 -0.06928508 0.067154035
-0.04963661 0.068984896 0.050878614 0.033530783 0.13901012 -0.03865184 0.057705544 -0.037641283
-0.021088442 -0.12672071 -0.042759 0.023552733 -0.057737906 -0.049009465 0.0029354524 0.05944027
-0.068383306 -0.05566335 -0.072525516 -0.092575215 -0.027333831 -0.07406853 -0.023419362 -0.0043019974
-0.00043874505 -0.016053068 -0.022115499 -0.0488592 0.040275287 0.0913153 -0.050510634 -0.01813948
-0.006220213 0.039910026 0.15967286 -0.0251413 -0.005061224 0.050700173 0.027259856 0.03989298
-0.027842531 0.05973554 0.027924873 -0.028051807 0.035979852 -0.0011247374 -0.07833305 -0.02407529
-0.06558582 -0.124102324 -0.0002900102 -0.04259346 0.020867594 0.021151029 0.11354853 0.07828696
-0.028783245 -0.0074037625 0.025971297 0.12090578 0.016381769 0.061289713 0.011756837 0.03281224
-0.097476766 -0.08468017 -0.07276094 0.0017469326 0.07231582 -0.14750397 0.028496008 -0.058691498
-0.04890464 -0.015961474 -0.02518475 0.019825414 -0.05943513 0.0684097 -0.0024395802 -0.052278757
-0.07137364 0.049251065 -0.016667958 -0.028230052 -0.06267136 0.02085944 0.0010040549 -0.023326667
0.001227246 -0.057651855 -0.031078352 -0.019893179 0.044105064 -0.05662841 -0.044910267 0.040410332
-0.06001938 -0.036480308 -0.054224066 -0.18076898 0.065587595 0.072247095 0.0012110219 0.0534488
0.094061755 -0.07724167 -0.06651179 -0.037605274 -0.0768142 -0.08660004 0.01619916 0.0035798866
-0.007082 -0.0028824557 0.070624344 0.004735423 0.03218366 -0.007550231 -0.05648053 -0.09764103
0.030307235 0.027736634 -0.05629522 -0.0050527225 -0.14414403 -0.0037977928 0.012836827 0.024594167
-0.019938763 -0.06706711 0.01675524 -0.05565383 0.014423452 0.047976855 -0.040828053 0.094759695
0.014791676 0.08915868 0.07080964 0.0028628109 0.07592839 0.019697051 0.009869534 -0.022782272
-0.14999145 0.007920449 0.017833585 0.025718022 -0.038398676 -0.1446337 0.03904033 -0.015917577
-0.013129329 -0.013593936 0.058182836 0.020150596 -0.09284849 0.031169113 0.015955178 0.07067008
-0.03820099 0.04890275 0.04120379 -0.01915013 0.03647114 0.003075515 0.069937475 0.096769296
0.024130132 0.097567774 0.037216786 0.041816566 -0.03716786 8.3299674e-05 0.11607846 -0.06076312
-0.057236698 0.0005882826 0.018568426 0.114846766 0.011991592 0.015125656 -0.025388025 0.045438766
-0.15348381 0.050142273 0.033547368 0.042023096 0.05019906 -0.13358065 0.055415746 -0.06411339
0.030983629 -0.0283715 0.004167163 -0.051311906 0.08638523 0.016150825 -0.03558983 -0.06343197
0.014553827 -0.02326986 0.028316857 0.056184337 -0.107702315 -0.08477408 0.014617966 0.03317812
0.034670174 0.10403019 -0.0103654 0.028747983 0.045381702 -0.062213242 -0.08185528 0.05809156
0.06371783 0.053770915 0.013550215 0.10300849 -0.07697896 0.0036392938 0.022373207 0.051751293
0.11900225 0.06452935 -0.0653074 -0.009105908 0.014501518 -0.034416817 0.011203871 0.06607607
-0.014563294 -0.0072722565 0.14011097 0.067862 0.03735514 -0.037882827 0.0072251274 -0.20012417

rnn.weight_hh_l0 f4 [128, 128]
00000000: 4b65 933d 500c 4ebc 7541 df3c 7c87 353d
00000010: babf 4ebd abef 8b3d 4597 90bd 0d39 90bd
00000020: 03fe 293d 6098 a33c 764a 013c dc02 113d
00000030: 898a 443d e563 1c3b fb88 48bd 4c36 453d
00000040: c984 d0bd 5496 8e3d 249a cebd e38f 86bc
00000050: a301 2fbd 8c17 3ebb e37f 073d 7542 5bbd
00000060: 3d0a 8a3d d7ec 13bd b80e 9f3c 19b9 2dbd
00000070: 647a 9ebb 0cba 1ebc de33 b93c d789 90bd
00000080: 0099 a7bd bdd7 a6bd 5f6d 4bbd 5215 c7bb
00000090: af22 8d3d cb8d 833d 027a a8bc 170c 203d
000000a0: 35ba bebd ff46 923d b351 80bc 32a7 0cbd
000000b0: e677 eb3c 3020 813d e5d3 98bd 53ac a03d
000000c0: 87b8 c13d fcc6 8b3d a692 483d dda3 433d
000000d0: 606d 0bbd 6edb a7bd 550b 3e3d dcca 6d3d
000000e0: 3d93 b8bd 7c6f a8bd d9c6 cbbc 6b6a 7bbd
000000f0: 10e9 943c 9383 b4bd e91a a03d 95b5 b3bd
00000100: 38f5 c9bc 7e4c b3bd 5938 8b3d ab06 403d
00000110: 8670 4fbd 6ad8 5b3b c6ec 913d f352 adbd
00000120: f189 7d3d e1c9 a5ba cfa3 253d 79e5 44bd
00000130: cf33 62bc e8b8 8fbd 60f4 393d 7e89 1bbc
00000140: ef91 bd3d 030b 293c 9ebd 0b3d ea10 5ebd
00000150: 84d8 05bd 5c31 59bb 2bef 883c a3fd 343d
00000160: 81b1 a5ba d7c7 2abd 4b2e 163c 0280 8ebd
00000170: 47a8 de3d 5836 9ebd 0ed3 873d 30c4 cdb9
00000180: c279 1dbd 662c 7b3c fe92 c4bd 8b68 4ebd
00000190: 333c 113d 9d58 bdbb fc52 bcbd cac9 64bc
000001a0: 4fc3 16bb ca88 d83b dc4c 0ebd 52bf 673d
000001b0: ed67 af3c 2ec3 b13d 47ee 6238 b0da 65bd
000001c0: a3bc bd3c 09fc d1bd bd8b 1f3d 3ada f1bc
000001d0: 3751 2ebc b360 323d d957 3ebc 3ffb 04bb
000001e0: 45c8 9bbd 1e0b 1cbd bba7 a43c 874d 9b3c
000001f0: 2b83 a6bc bb99 a1bd 0a3c 923d e164 debc
00000200: 0fee 503d ffc4 b13d 9615 273d d891 563c
00000210: 113e 8fbb 701e 51bd 8e0c 583d c0e5 ea3b
00000220: 4119 63bd 699b 9f3d d677 8b3c a9bc 30bd
00000230: 4e3c 5b3d a1f7 9e3d 96db 5abd a79a 70bd
00000240: 5de7 91bd ef75 11bd 136d 743c 0193 b3bd
00000250: 320a 98bd 56c6 babc d42f aa3b b10d 38bd
00000260: 00b7 213d a9ac eabb 84f1 763d 3fc3 6c3b
00000270: d5ca 0a3d 2078 fbbc 3a50 d13b 71ad 33bd
00000280: 4296 77bd 1805 383c 977c a6bc 2053 1c3d
00000290: de35 283d 55f8 83bb baea 823d 06f1 d23a
000002a0: 059e 283c 6151 813c ed37 513d ca5c 7dbd
000002b0: 6237 b23c fcd7 8fbd 2ac7 7e3d 1672 183c
000002c0: de5e 9c3d 5435 e23c 6879 d0bb 929b 9dbd
000002d0: e8ca 3e3d 7e70 893d 638f 7c3c e937 6dbc
000002e0: f276 7ebd 16de 89bd e662 f7bc 1560 a53d
000002f0: 5ec7 5fbd 58ef 46bd 3f0a 743d 27c3 2a3d
00000300: ce90 57bc 327c 913d 2763 a63c 3a42 a5bd
00000310: 5e2d a13d 34c9 993d b7cf 243c 2443 b0bd
00000320: 7eeb 89bd 2635 203d 5b09 a83c 96ae f4bc
00000330: 23c7 303c 1537 9e3d b5db 2cbd a376 4fbb
00000340: 6bc6 42bd fdad 62bd ce03 423d ebd3 213c
00000350: c31b f03c 9b3e e83c 1e3f e73b afe9 2abd
00000360: d0ee 193d 06cf b0bd 0fd5 5a3b 66ef 993d
00000370: 1fa2 b2bd 0d4a 36bc 1b79 a93d a05e 633c
00000380: 98ef babb 0799 b53c 1612 a73b c9b0 ec3c
00000390: f333 9bbd ad86 b7bb 3f8f 653d 23c9 96bd
000003a0: 7b9d a43c 2680 a33d cdab d63a 786c c7bd
000003b0: 68f3 3fbd 0b24 233d 83c7 06bd 67d7 adbc
000003c0: be50 273d 36af 16bd e890 f8bc 479f 9b3d
000003d0: 43c0 9c3c ef68 cc3c da54 42bd e338 12bd
000003e0: 70d9 98bd 2ab5 64bd 5c59 8a3d 7967 7d3d
000003f0: b370 183d f288 2b3d 2988 3abd 69be 7d3d
0.071970545 -0.012576178 0.027252892 0.04431866 -0.050475813 0.068328224 -0.070601024 -0.070421316
0.04150201 0.019970119 0.007891288 0.035403118 0.04798368 0.0023863253 -0.04895876 0.048147485
-0.10181577 0.069622666 -0.10087994 -0.016426032 -0.04272617 -0.0029005734 0.033080947 -0.053530175
0.06740234 -0.03611454 0.019416198 -0.04241285 -0.0048363674 -0.009687912 0.02260774 -0.07057541
-0.08183479 -0.081466176 -0.04966485 -0.0060755396 0.06891381 0.06423529 -0.02056599 0.03907403
-0.0931286 0.07142448 -0.015663957 -0.034339137 0.028743695 0.063049674 -0.07462291 0.07845368
0.09459024 0.06825063 0.04896798 0.047763694 -0.034039855 -0.0819615 0.046397526 0.05805479
-0.090124585 -0.08224389 -0.024875091 -0.061380785 0.01817754 -0.08814158 0.07817633 -0.087748684
-0.024653062 -0.08754824 0.06797857 0.04688136 -0.05064442 0.003354574 0.07125239 -0.08463087
0.06189913 -0.0012648666 0.040439423 -0.048070405 -0.013806297 -0.0701769 0.04539907 -0.00949323
0.0925635 0.010317567 0.03411638 -0.05421535 -0.03267719 -0.0033140993 0.016715607 0.0441872
-0.0012641401 -0.04169449 0.009166311 -0.06958009 0.1087194 -0.07725209 0.06632052 -0.00039246818
-0.038446195 0.01533041 -0.09598349 -0.05039267 0.0354578 -0.005778386 -0.091955155 -0.013964126
-0.0023004597 0.0066081034 -0.034741268 0.05657894 0.02141186 0.08679806 5.4104512e-05 -0.05611676
0.023161238 -0.1025315 0.038951624 -0.029523004 -0.01063948 0.04354925 -0.011617624 -0.0020291356
-0.07606558 -0.03809654 0.020099511 0.018957866 -0.020326218 -0.0789065 0.07140358 -0.027147712
0.05100828 0.08680152 0.04079207 0.013096295 -0.0043714126 -0.051054418 0.052746348 0.0071685016
-0.055444006 0.07793314 0.017024916 -0.04314867 0.053524308 0.07762075 -0.05343207 -0.058741238
-0.07124207 -0.03551286 0.014918583 -0.08768273 -0.074238196 -0.022799652 0.00519369 -0.044934932
0.039481163 -0.007161696 0.06028892 0.0036127118 0.033884842 -0.030696929 0.0063877376 -0.04386658
-0.06044603 0.011231683 -0.020323081 0.03816521 0.041066997 -0.004027406 0.06392427 0.0016093559
0.010291581 0.015785875 0.051078726 -0.06185607 0.021754924 -0.070236176 0.062201656 0.009304544
0.07635282 0.02761332 -0.006362129 -0.07695688 0.046580225 0.06710909 0.015415045 -0.014478662
-0.062125154 -0.06731813 -0.030198526 0.08074967 -0.05463349 -0.0485681 0.059580084 0.041690018
-0.013157083 0.071037665 0.020310951 -0.08069272 0.07869981 0.075090796 0.010059289 -0.08606556
-0.0673437 0.039113186 0.020512274 -0.029868405 0.010789665 0.0772535 -0.042201716 -0.0031656406
-0.047552507 -0.05534171 0.04736691 0.009877185 0.029310113 0.028350165 0.0070570847 -0.041726764
0.037581265 -0.086332366 0.0033391153 0.07516365 -0.087223284 -0.0111260535 0.08275052 0.013877541
-0.0057048313 0.022167696 0.0050985916 0.028892891 -0.07578268 -0.0056007714 0.056044813 -0.073625825
0.020094624 0.07983427 0.0016378105 -0.09737486 -0.04686299 0.039829295 -0.032905113 -0.021220876
0.040848486 -0.036788188 -0.030342534 0.07598739 0.019134646 0.02495238 -0.047444202 -0.035698783
-0.07463348 -0.055836834 0.06755325 0.061866257 0.037216853 0.041878648 -0.04554001 0.061949167

rnn.bias_ih_l0 f4 [128]
00000000: 5199 0ebd f8c1 153c a065 2a3d fdb6 d43c
00000010: d9b9 64bd 830d c7bc 53b5 393b 886d e63c
00000020: 7089 a13d 211a 9cbb 93c9 15bd daf8 45bc
00000030: 8ffc a7bd 1280 a23d 2df4 933d 8af3 9f3d
00000040: 5ec5 883d 0fa9 603b 592e 7f3c 7c59 783d
00000050: 78e5 3fbd a7ae 413d d7e3 733c 1e67 e13b
00000060: e04f bf3b 3c51 913d 0864 3cbd 9e7c c0bb
00000070: ca92 6cbd bf23 2b3d cb4e e0bb 8560 9c3d
00000080: f189 853d 0977 c3bc 6a13 08bd 0691 e2bc
00000090: 4ff3 41bd b9fb 443c e637 e53c f93d 203d
000000a0: 31f9 87bc fe14 843d d929 903d bd45 99bd
000000b0: 499c 47bd 1e96 94bd edbb cd3c ab0c 3a3b
000000c0: 16c7 aa3c 8ab0 93bd ad92 333d b74b 31bc
000000d0: cb46 713b 65e4 663d 22b2 983d c6fb 9dbd
000000e0: cbce b63d b181 193c 3669 23bd c150 033d
000000f0: 7844 7fbd 46da 313d f1b1 2ebd c179 10bd
00000100: 832a 103d 7a5f 20bd 1026 78bc 7111 803d
00000110: 2de7 883d 17fc 433b b737 96bd 332e 69bd
00000120: 6628 7fbd 0d0f 33bd 269f 803d 04b5 ed3c
00000130: db7c 053d e646 83bd e78c a8bd 4844 973d
00000140: df44 73bd c13c e93d 914e a73d e282 21bb
00000150: 8c21 ac3c a08c 893d 170e 883d 51d9 5c3d
00000160: 09f2 debb 3a83 873d f3e2 133d 9b87 7d3c
00000170: 5238 0f3d e17f df3a f508 343b fca1 ca39
00000180: bbdb a93c d5e3 b0bd 3f2a 6ebd 521d 98bd
00000190: 4c0b c7bc c612 8c3d b7fa 793c 1f59 293d
000001a0: 31fc a33d 9ac9 a83d f620 593d 3a9b 4dbd
000001b0: e8a9 bd3c d98c 53bd 0f25 a73d e01b 643d
000001c0: 6f5c 01bd 5300 aebd 8a5c f8bc d1e7 773d
000001d0: 2fd9 943d b566 ce3c 532a a93d 5bf4 aabc
000001e0: 5961 173d 670e 283d e846 4fbc ac77 703d
000001f0: 5ca8 85bd 5c3d 333d 6270 adbd ea2a 62bd
-0.034814183 0.009140484 0.041600823 0.025966162 -0.0558413 -0.024298435 0.0028336837 0.0281284
0.07887542 -0.004763857 -0.03656919 -0.012083257 -0.082024686 0.07934584 0.07224307 0.07810123
0.0667827 0.0034280454 0.015575015 0.060632214 -0.046849698 0.047285702 0.014885864 0.0068787476
0.0058383793 0.07095572 -0.045993835 -0.0058742305 -0.057757176 0.041782137 -0.0068453304 0.07635597
0.06520451 -0.023860471 -0.03322164 -0.027657043 -0.047351178 0.012022906 0.027980756 0.0391216
-0.016598316 0.064493164 0.07039232 -0.07484005 -0.04873303 -0.07255195 0.025114024 0.0028388898
0.020846885 -0.072114065 0.043841053 -0.0108212745 0.0036815878 0.056370158 0.07455851 -0.077140376
0.089261614 0.0093693 -0.03989526 0.032059435 -0.062321156 0.043421052 -0.042650167 -0.035272364
0.035196792 -0.039153554 -0.015145794 0.06253327 0.06684718 0.0029904896 -0.073348455 -0.056928825
-0.062294386 -0.043715525 0.06280355 0.029016979 0.032589775 -0.06410007 -0.0823 0.073860705
-0.059391852 0.11388541 0.08169282 -0.0024644663 0.02101209 0.06716275 0.066433124 0.053918187
-0.006803755 0.06616826 0.036105108 0.015474225 0.03496582 0.0017051661 0.002747116 0.0003864913
0.020734658 -0.086372055 -0.058145758 -0.074274674 -0.024297379 0.06839518 0.015257529 0.041344758
0.08007086 0.082415774 0.05300995 -0.050196864 0.023152307 -0.051647995 0.08161365 0.055690646
-0.031582292 -0.084961556 -0.030317564 0.06052381 0.07267987 0.025195459 0.08260026 -0.02086847
0.036958072 0.04102936 -0.012651183 0.058707878 -0.065262526 0.04375969 -0.08468701 -0.055216707

rnn.bias_hh_l0 f4 [128]
00000000: e0d5 84bd d801 28bc d4d1 443c e5c1 55bc
00000010: 079e 933d 7e64 b43a 8d46 3abd 32e5 cdba
00000020: ce4d 3ebd fb35 81bd 92cc 623d c6ad 983d
00000030: 62a6 44bc 77ac 48bd a9a5 5dbd ad08 09bd
00000040: e9c0 6a3d 2833 a6bd 345a 11bc e3b6 ca3c
00000050: b297 8b3d fb65 8c3d a2d1 ed3c a785 afbd
00000060: b9cd 5a3d e891 9a3d 214d 91bd 438b 7d3d
00000070: cf43 8e3d 4c70 e83c 0b78 9b3d a61b 653c
00000080: 75f7 0bbd 3f74 fcbc 854b 803d 3f58 7ebd
00000090: c057 bebc e4eb b2bc 4fa8 73bd 9d44 30bd
000000a0: 0420 afbb c99f 9dbd 33a9 833c c474 7ebd
000000b0: e356 51bd 76e3 fbbb 0f02 573d 2b6e 8e3d
000000c0: 6fa2 183d 6dff 2dbd fefa 64bd f131 3a3c
000000d0: 52c6 63bd 3d09 3cbc 5ec8 873c d9b3 493d
000000e0: e9a1 2abd 7ab5 263b 3c78 bcbc 98ea c13c
000000f0: 8a15 8a3d f929 c33c e93e 43bd bbb4 92bd
00000100: f79b 6fbd 87a0 99bd 76ea 2d3d 79e2 a33d
00000110: f9f9 3dbd 024b c8bc 3039 fabc 1d31 903d
00000120: 01a6 7b3d 7ff0 2a3d 9f85 8a3d 9619 a7bd
00000130: fc35 e8bc 4cb7 60bd 60a6 b43c 3204 3b3c
00000140: f6bc 913d 0848 bdbc 828b 6e3b 5c7d 4d3c
00000150: 2b9c 5e3d 0a14 993d 0606 1ebd 7a0b ca3a
00000160: 5891 643d 3941 4c3d 2d22 7c3d b5e3 c4bb
00000170: eb63 fc3c 1a43 bfbb cb42 7a3c b962 ecbc
00000180: bf69 b7bd 84a2 093d c387 3cbd 12f5 25bd
00000190: 2830 9d3c c195 893c 3213 bfbc 7a18 723b
000001a0: 1dad a0bd 872e ff3c 7b08 1d3b 458a 9c3c
000001b0: abeb 4f3b f62d c03b 78f9 133d a78a f0bc
000001c0: 3c11 7abd 00b5 a93d 74ff db3c 36e8 96bc
000001d0: 8648 a1bd ec67 9dbd 96a4 82bc 40b7 1d3d
000001e0: 4cbc 4b3c e34d c1bd 7f80 a5bd d832 313d
000001f0: 0705 63bd 8ecc 26bd 4095 63bd 6431 b93d
-0.06486106 -0.010254346 0.012012918 -0.013046716 0.07207876 0.0013762859 -0.04547744 -0.0015708564
-0.04646092 -0.06309124 0.055370875 0.0745502 -0.012002559 -0.0489926 -0.054113064 -0.03345554
0.05731288 -0.08115226 -0.008871604 0.02474541 0.06816043 0.06855389 0.029030625 -0.08570414
0.05341885 0.07547361 -0.07094789 0.06190039 0.06946527 0.02837386 0.07591256 0.013983643
-0.03417154 -0.03081715 0.06264404 -0.062095877 -0.023235202 -0.021840997 -0.059486683 -0.043034185
-0.0053443927 -0.07696492 0.016071891 -0.062123075 -0.051108252 -0.0076870276 0.052492198 0.069546066
0.037264284 -0.04247992 -0.055903427 0.011364446 -0.055609055 -0.011476812 0.016575035 0.04924378
-0.041658316 0.0025437758 -0.023006551 0.023671433 0.067423895 0.023823725 -0.047667418 -0.07163378
-0.05849835 -0.07501321 0.042459927 0.080021806 -0.04638097 -0.024449829 -0.030544847 0.070406176
0.06143761 0.04173326 0.067637675 -0.08159177 -0.028346054 -0.054862306 0.02205199 0.011414574
0.071161196 -0.023105636 0.003639907 0.012542095 0.054348152 0.07474525 -0.038579963 0.0015414797
0.055802673 0.04986689 0.06155603 -0.00600859 0.030809363 -0.0058368566 0.015274714 -0.028855668
-0.08955716 0.033602253 -0.04602791 -0.04051692 0.019188002 0.016795041 -0.023324583 0.0036940859
-0.07845519 0.031150116 0.0023961354 0.0191089 0.0031726162 0.005864854 0.036126584 -0.02936299
-0.061051592 0.08286476 0.026855208 -0.018421274 -0.07875161 -0.07685837 -0.015947621 0.03850484
0.01243503 -0.09438684 -0.08081149 0.04326138 -0.055424716 -0.040722422 -0.055562258 0.09042624

linear.0.weight f4 [1, 128]
00000000: 37ab 2b3c 6d5f bcbd 41da d9bc 8401 e63d
00000010: 9b8b fb3d af8c bbbd 0aac 7e3d 811e 09be
00000020: a531 7abc eab9 c83d fb10 cb3d ae6a 2a3d
00000030: 4ae2 62bc 60ae d9bd d3ea 083e 93e8 1b3e
00000040: 31ef efbc da25 13be ff1b 463b 6750 5fbd
00000050: 4648 6cbd 69c4 d4bc ecab 9bbd 021c 17be
00000060: 2e7c db3d c910 0cbe f3de 47bc 99f1 d4bd
00000070: 5b82 03be 566e 52bd 7013 88bc 8db1 a03d
00000080: f981 c4bd 144b 8fbd c364 153d 36b2 323d
00000090: 0404 d1bc db10 6d3d 647d ae3d 9a0b f03d
000000a0: 0efb 19be e3b4 10be a914 803d 9091 d6bc
000000b0: 00f5 0ebe a003 d23d c03b 09be 853e 383d
000000c0: d5c5 c93d 5b03 38bd 38e6 613d d097 d7bd
000000d0: aff9 e7bd 21ee b9bd b211 863b f733 5cbd
000000e0: 7d9f 343d 0ecf 00bd 673c afbd 2c94 e03d
000000f0: d7be 21be 2d6d 2dbd 2c21 a7bd e7e5 02be
00000100: d84f 0c3e f419 1cbe b2dc d53d 3355 d03d
00000110: 11e1 05be 5e6e 2ebd eb25 a0bd e589 993d
00000120: c29e cabd 4dde 66bc a687 3a3d a982 47bd
00000130: 637d e8bd 9922 abbd 74a7 2d3e 5418 cdbd
00000140: 1e1b 613d bb3f 0c3e 0d52 c1bd 92f8 e33d
00000150: 8373 05be 1de5 04be fb32 9bbd bf23 613d
00000160: d311 153d 975a 19be addf 1a3e 2aff 34bd
00000170: 9745 923c 4596 02be 84e6 58bd 79b4 b0bd
00000180: 524b 2fbe 2889 f1bd 0d17 e2bc f903 89bd
00000190: 8e60 d7bd 010e debd b4d5 963b 398c 493d
000001a0: ac9f 0abe 0838 ee3d 963c 963c b47c a2bc
000001b0: 4568 e8bd 3cbe 7abd d021 993b 075d d2bd
000001c0: 8504 e73d e69b 9dbd 528e 0cbe 1242 2bbc
000001d0: 3926 e6bd 42f1 c3bc a1db 1d3e dfef c8bd
000001e0: 85a2 6d3d a36e 1d3e a83b fe3c 8bb3 23be
000001f0: 386e 543b f4b6 efbd 0ff0 4ebd cc26 bcbd
0.0104778325 -0.091978885 -0.02659333 0.11230758 0.12282487 -0.09157693 0.062175788 -0.13390543
-0.015270625 0.09801085 0.09915348 0.041605644 -0.013847897 -0.106289625 0.13370828 0.15225439
-0.02928886 -0.14369908 0.003022909 -0.054520037 -0.057686113 -0.025972562 -0.07601151 -0.14756778
0.10717045 -0.13678278 -0.012199151 -0.103976436 -0.12842695 -0.051374756 -0.016610831 0.07846365
-0.09595103 -0.06996742 0.036473047 0.043626986 -0.02551461 0.057877403 0.0852001 0.11720963
-0.15037176 -0.14131503 0.062539406 -0.026192456 -0.13960648 0.10254598 -0.13401699 0.0449815
0.098521866 -0.044925075 0.055151194 -0.10527003 -0.1132692 -0.090786226 0.004091465 -0.053760495
0.044097412 -0.031447463 -0.08556443 0.109657615 -0.15795456 -0.042340446 -0.08160624 -0.12783013
0.13702333 -0.15244275 0.10442485 0.101725005 -0.13074137 -0.042585723 -0.07819732 0.074970044
-0.09893562 -0.014091087 0.04553952 -0.04870859 -0.113520406 -0.08356208 0.1695841 -0.10014406
0.0549575 0.13696186 -0.09439478 0.111313954 -0.13032345 -0.12978025 -0.07578083 0.05496573
0.03639395 -0.14975964 0.15124388 -0.044188656 0.017855449 -0.12752636 -0.05295421 -0.086281724
-0.17118576 -0.117937386 -0.027598882 -0.06690211 -0.10516463 -0.10842515 0.004603112 0.049205992
-0.13537472 0.11631781 0.018339437 -0.019834854 -0.11348013 -0.061216578 0.00467322 -0.1027165
0.11280159 -0.07695751 -0.13726166 -0.010452764 -0.11237759 -0.023918752 0.15415813 -0.09811377
0.05801632 0.15374236 0.031034306 -0.15986459 0.0032414328 -0.117048174 -0.050521906 -0.091870874
