models/014-rnn_hs_128_2.pt (torch, 72354 bytes, 5 tensors)

rnn.weight_ih_l0 f4 [128, 5]
-0.0913547 -0.015230776 0.014442723 0.0032707357 0.006269994 -0.02226665 -0.010335257 -0.061418675
0.016109647 -0.060195196 -0.013851754 0.010328159 -0.0032022614 0.053839996 0.008154392 -0.05602741
0.030363496 -0.046359766 -0.018125592 0.056795508 -0.11601961 -0.008684284 -0.0072138896 0.059014115
-0.011908322 0.15692066 -0.014909058 -0.035059433 -0.016285427 -0.012994603 -0.19112258 -0.053608686
0.015997764 0.027475204 -0.0055861976 -0.1108029 0.03329045 -0.032818716 -0.013074761 -0.037532
0.08425416 -0.08228178 0.040866897 0.008695183 0.00891025 0.16407341 0.035400555 0.0068629896
-0.0013224079 0.006285333 0.080326475 0.061677292 0.05837443 0.050880045 -0.0058365427 -0.06084013
-0.015648572 0.049292944 0.008656682 0.08349607 0.09709274 -0.071974136 0.027283989 0.086355366
0.05638273 0.03169861 0.03559814 -0.05693437 -0.026007298 0.03080804 -0.118222654 0.07304978
-0.05154937 0.02039042 -0.0052418415 0.09477639 0.0077873943 -0.07197452 -0.012893468 -0.027173862
0.19181643 -0.011960208 -0.057526354 0.010838437 0.029664082 -0.09462443 -0.008769685 0.030548705
-0.04023545 -0.03228441 -0.100278586 -0.061462507 0.04629015 0.008194957 0.02265503 0.0033244689
-0.06936818 -0.052780863 -0.074822746 -0.026503673 -0.05641259 -0.02042781 -0.07768786 0.029558133
0.040754378 0.06625446 0.056132887 0.054790467 -0.05810435 0.016666688 0.124127954 -0.05792576
-0.029464766 -0.0076966467 -0.033719994 0.101640455 -0.02115889 0.06492291 -0.008720936 0.033979103
0.18677634 0.03244752 -0.06279999 0.030077038 0.02363906 0.02468846 -0.03710528 0.06625015
-0.082153335 -0.07370332 -0.08109301 0.017753614 -0.03655639 -0.06386063 0.02903331 0.16232035
0.020474669 -0.06138625 0.03760981 0.00077640096 -0.112573944 -0.013901726 0.0464055 0.023928612
-0.005975345 0.11021883 -0.075224906 0.054098573 0.0594825 -0.04117378 0.07705807 -0.014637844
-0.069288686 -0.011437669 -0.012099713 -0.16218688 -0.065774836 -0.003722673 0.040317256 0.0059958016
0.016773812 0.0629972 0.000985193 -0.052955456 0.0049759545 0.1265823 -0.05189643 0.00026541387
-0.01792802 -0.034970254 -0.140207 0.0024090542 0.053156268 -0.0034188528 -0.04665478 -0.035289638
-0.069777705 -0.002015332 0.0434418 0.019105136 -0.008006597 -0.019101463 0.02849559 0.013771551
-0.05787771 0.044282943 -0.038956907 0.024560098 0.07168214 0.03529089 -0.031080935 -0.073184386
0.04634767 0.024120709 -0.027270196 0.024144458 0.024381328 -0.04069064 0.01988096 0.049426623
-0.11510341 -0.055782832 -0.033290725 -0.05868835 -0.015159129 0.16893351 0.04335402 -0.031084966
-0.0064783143 -0.015612506 -0.097606376 -0.024114931 0.0021533004 -0.030826725 -0.056044802 -0.08420347
0.022077594 -0.03774301 0.03391506 0.09799159 -0.05144538 -0.06269858 0.07280181 0.034692954
-0.008630743 0.089218095 -0.06568034 0.07998452 0.030517325 -0.020105716 0.050239474 0.019432066
0.024019025 -0.0076533114 -0.027982429 -0.10601781 -0.029274512 -0.024234565 -0.017047547 -0.024332674
-0.049371827 0.029750267 -0.07190222 -0.06354165 0.07187818 0.07141117 0.049124114 0.031880252
-0.019821273 -0.03732199 -0.032069877 -0.006107848 0.015998464 -0.08326992 -0.05578457 -0.06415451
00000000: 2c18 bbbd 818a 79bc 2ca1 6c3c d759 563b
00000010: 8674 cd3b 8d68 b6bc 3655 29bc 2692 7bbd
00000020: 61f8 833c 3d8f 76bd 78f2 62bc 7037 293c
00000030: 08dd 51bb 5487 5c3d 009a 053c ff7c 65bd
00000040: debc f83c bde3 3dbd 1f7c 94bc 68a2 683d
00000050: b09b edbd 8748 0ebc 7e62 ecbb c9b8 713d
00000060: 1f1b 43bc cfaf 203e 1f45 74bc 7b9a 0fbd
00000070: 0469 85bc 51e7 54bc a3b5 43be c894 5bbd
00000080: be0d 833c ae13 e13c 6c0c b7bb a1ec e2bd
00000090: 915b 083d eb6c 06bd 8637 56bc 28bb 19bd
000000a0: 728d ac3d 5a83 a8bd 0c64 273d 3e76 0e3c
000000b0: 4cfc 113c dc02 283e 2c00 113d eee2 e03b
000000c0: a554 adba 32f5 cd3b 3582 a43d 54a1 7c3d
000000d0: 071a 6f3d 9867 503d 7840 bfbb 8033 79bd
000000e0: 6f31 80bc 66e7 493d c2d4 0d3c fdff aa3d
000000f0: 8fd8 c63d 2d67 93bd ac82 df3c 15db b03d
00000100: 94f1 663d 67d6 013d 5bcf 113d 0434 69bd
00000110: 420d d5bc 2561 fc3c b81e f2bd 209b 953d
00000120: 6f25 53bd cf09 a73c c1c3 abbb 201a c23d
00000130: 662d ff3b 6167 93bd 203f 53bc b89b debc
00000140: 876b 443e c0f4 43bc c1a0 6bbd b393 313c
00000150: 1702 f33c 74ca c1bd baae 0fbc 4741 fa3c
00000160: edcd 24bd a83c 04bd dc5e cdbd 1cc0 7bbd
00000170: be9a 3d3d 2444 063c 0b97 b93c 55df 593b
00000180: e810 8ebd bf30 58bd ab3c 99bd 3b1e d9bc
00000190: e310 67bd 3958 a7bc d01a 9fbd e623 f23c
000001a0: 10ee 263d 6bb0 873d 99eb 653d f86b 603d
000001b0: d4fe 6dbd 9488 883c cc36 fe3d 9043 6dbd
000001c0: 1860 f1bc 2734 fcbb fa1d 0abd df28 d03d
000001d0: 6955 adbc 4df6 843d 42e2 0ebc ac2d 0b3d
000001e0: 4c42 3f3e b1e7 043d 489d 80bd 1f64 f63c
000001f0: b4a6 c13c 743f ca3c b5fb 17bd 29ae 873d
00000200: 0240 a8bd c4f1 96bd 1814 a6bd 0770 913c
00000210: 27bc 15bd 5dc9 82bd 44d7 ed3c 4e37 263e
00000220: 7eba a73c 2670 7bbd be0c 1a3d 6387 4b3a
00000230: 2b8d e6bd 11c4 63bc b213 3e3d f005 c43c
00000240: d4cc c3bb 69ba e13d 840f 9abd 7796 5d3d
00000250: eca3 733d d6a5 28bd 9fd0 9d3d 91d3 6fbc
00000260: 3ae7 8dbd 1065 3bbc e03d 46bc 5114 26be
00000270: f5b4 86bd 17f8 73bb b523 253d 6e78 c43b
00000280: 3c69 893c ad04 813d 9721 813a d2e7 58bd
00000290: 550d a33b ca9e 013e 5a91 54bd 3f27 8b39
000002a0: c8dd 92bc f83c 0fbd 6c92 0fbe 39e1 1d3b
000002b0: 63ba 593d d50e 60bb 1519 3fbd de8b 10bd
000002c0: 9de7 8ebd a913 04bb 07f0 313d 6082 9c3c
000002d0: 1a2e 03bc ac7a 9cbc 956f e93c 12a2 613c
000002e0: 2d11 6dbd 0862 353d 4791 1fbd 4232 c93c
000002f0: 16ce 923d 2e8d 103d 729d febc b2e1 95bd
00000300: 0ed7 3d3d cb98 c53c bf65 dfbc 99ca c53c
00000310: 5abb c73c 3bab 26bd 65dd a23c 9273 4a3d
00000320: 56bb ebbd 8a7c 64bd db5b 08bd 3263 70bd
00000330: ff5d 78bc e8fc 2c3e fc93 313d e6a5 febc
00000340: 0a48 d4bb 99cb 7fbc dae5 c7bd ad8c c5bc
00000350: 631e 0d3b 5488 fcbc 3c8f 65bd de72 acbd
00000360: 12dc b43c 6a98 1abd 85ea 0a3d d1af c83d
00000370: 64b8 52bd 1d68 80bd 1e19 953d 331a 0e3d
00000380: f667 0dbc fab7 b63d 6a83 86bd edce a33d
00000390: 78ff f93c beb4 a4bc e8c7 4d3d ff2f 9f3c
000003a0: 8cc3 c43c a1c8 fabb 683b e5bc de1f d9bd
000003b0: 1ad1 efbc 9187 c6bc 4ca7 8bbc 5155 c7bc
000003c0: 1d3a 4abd d5b6 f33c 7941 93bd 2022 82bd
000003d0: de34 933d 0540 923d 5e36 493d de94 023d
000003e0: 3960 a2bc f1de 18bd b45b 03bd 5824 c8bb
000003f0: 360f 833c 6b89 aabd 5c7e 64bd 7163 83bd

rnn.weight_hh_l0 f4 [128, 128]
-0.06429481 0.060769938 -0.046813495 -0.062362175 0.00708775 -0.053492628 0.02065612 0.05496458
0.00796406 -0.006489004 -0.024913177 0.045134906 0.07050934 -0.003249226 -0.052326843 0.036889583
0.036193125 0.043919656 -0.030402312 0.025358798 0.08896527 0.055170413 -0.08257981 0.011940782
-0.06669878 -0.053545803 -0.042723276 0.027598403 0.06942707 -0.08219682 -0.012749433 0.040845703
0.051682964 0.033564705 0.06473909 0.054678068 -0.06700726 0.050937735 0.01053572 -0.06299578
0.063442744 0.037016716 -0.05028251 -0.027014457 0.046251807 0.033337187 0.07910197 -0.058372717
0.019359745 -0.087577194 0.10272615 -0.062477052 0.05055417 0.051249824 -0.03469785 -0.05033394
0.07415702 0.10261691 0.0001312474 0.009184099 0.08071753 -0.008593293 -0.06932763 0.03784223
-0.07545909 0.032687124 -0.06641947 -0.008053483 -0.045426376 -0.02521396 -0.02270743 0.011136896
0.008997068 -0.08135935 0.100795634 0.040055774 -0.07498131 0.094539784 0.0045399657 -0.03439327
0.053847965 0.019853588 -0.00015738876 0.040537935 0.015988817 0.050577193 -0.049132235 -0.0971694
-0.009796904 -0.09332298 0.017710982 -0.08324869 -0.0024688847 0.07837207 -0.0467893 -0.0114044
0.027450798 -0.10261078 -0.055580497 -0.027061453 0.013979043 0.0071117072 -0.058867518 -0.0072461474
-0.015589263 -0.10263565 -0.0038045745 -0.031475414 -0.0642943 -0.06271359 0.058249135 0.015047667
-0.08914248 0.023967532 -0.06711603 -0.05645725 -0.0021064563 0.007804558 -0.060822405 -0.004169433
0.030491702 0.09095049 -0.009485118 0.07112215 0.07205753 -0.011136881 0.066833936 -0.031751983
0.019334577 0.03219076 -0.002554326 0.023196632 0.043653123 -0.07946903 0.048209067 0.034965098
-0.034574557 0.070850186 0.021482969 -0.06884822 0.07844477 0.034099516 0.05802328 0.011218066
0.02360627 0.017353933 0.08029631 0.064114764 0.028817955 0.0004875094 -0.0643153 0.054431733
-0.042876795 0.01866618 0.05383002 -0.030569907 -0.006317619 -0.05919422 -0.030172015 -0.07069498
-0.00827706 0.07994563 -0.07422996 -0.046652943 -0.07194619 -0.02744525 0.06092197 0.053233836
0.08861523 0.030034518 0.07365314 -0.053733345 -0.037310958 -0.073272176 -0.090613924 0.022971911
-0.013265928 -0.06372603 -0.006990051 -0.087666415 0.052262638 0.04690595 -0.014087603 -0.005415724
0.007236191 0.0072788293 0.005884771 -0.0253858 -0.023021251 0.028991481 -0.023766395 0.032254826
-0.023521595 0.0838335 0.062234942 -0.060381535 -0.07766504 0.04586683 -0.075095095 0.07884546
-0.087091416 0.050312836 0.006337922 0.010487082 0.07213643 0.07290938 -0.015700772 -0.026167609
0.03365756 -0.0067319204 -0.066691004 -0.080704555 -0.061328724 0.06887532 0.005650679 0.004030441
-0.04545376 -0.04119492 0.022366391 0.066647224 -0.043979645 -0.059449214 0.025676163 0.001845384
-0.029936101 -0.09888246 0.080374256 -0.026692875 0.036348276 -0.086340785 -0.06998825 0.06471462
-0.069772415 -0.010702796 0.0067611993 0.009300002 -0.07300048 0.03977313 -0.007071867 0.025078384
0.06862408 -0.06904502 0.016467603 0.034533087 -0.040199067 0.059728973 0.073029935 -0.049244795
-0.014868117 0.03430331 -0.045493294 -0.093185894 0.08876851 -0.0036497917 0.059893347 0.045241173
00000000: ffac 83bd e6e9 783d 82bf 3fbd 7b6f 7fbd
00000010: 5b40 e83b 161b 5bbd 0637 a93c 8a22 613d
00000020: b07b 023c b6a1 d4bb b816 ccbc 61df 383d
00000030: 3367 903d f7f0 54bb ac54 56bd 8819 173d
00000040: 3e3f 143d 19e5 333d 450e f9bc 41bd cf3c
00000050: 6c33 b63d 5ffa 613d 9a1f a9bd 45a3 433c
00000060: 5f99 88bd d852 5bbd 9afe 2ebd 0c16 e23c
00000070: c82f 8e3d ce56 a8bd ffe2 50bc d34d 273d
00000080: 84b1 533d 257b 093d ee95 843d 1cf6 5f3d
00000090: 1a3b 89bd 16a4 503d 039e 2c3c ee03 81bd
000000a0: 45ee 813d d79e 173d 09f5 4dbd 6c4d ddbc
000000b0: 8972 3d3d 938c 083d 3700 a23d 3b18 6fbd
000000c0: 5498 9e3c ac5b b3bd 1662 d23d f0e7 7fbd
000000d0: e411 4f3d 56eb 513d 551f 0ebd f62a 4ebd
000000e0: a3df 973d d128 d23d 759f 0939 e778 163c
000000f0: 3b4f a53d e2ca 0cbc a5fb 8dbd 7400 1b3d
00000100: 4c8a 9abd efe2 053d ee06 88bd c2f2 03bc
00000110: 0211 3abd 828d cebc ef04 babc 8777 363c
00000120: 7068 133c bb9f a6bd f16d ce3d 8611 243d
00000130: cd8f 99bd 139e c13d fec3 943b f5df 0cbd
00000140: af8f 5c3d fea3 a23c b908 25b9 1b0b 263d
00000150: fbfa 823c 082a 4f3d e23e 49bd c000 c7bd
00000160: 3283 20bc 1e20 bfbd 9f16 913c 4a7e aabd
00000170: 03cd 21bb 8981 a03d 23a6 3fbd 85d9 3abc
00000180: 7fe0 e03c 9a25 d2bd 60a8 63bd fbaf ddbc
00000190: 5b08 653c 5309 e93b 111f 71bd 1771 edbb
000001a0: 1c6a 7fbc a432 d2bd 2b56 79bb 5dec 00bd
000001b0: bbac 83bd fc6f 80bd a596 6e3d 7d8a 763c
000001c0: 5590 b6bd 8f57 c43c 2174 89bd b83f 67bd
000001d0: 790c 0abb 61bd ff3b ea20 79bd bd9f 88bb
000001e0: bcc9 f93c 4044 ba3d 7867 1bbc 7da8 913d
000001f0: e692 933d 7777 36bc 3be0 883d 5e0e 02bd
00000200: 8c63 9e3c 75da 033d 7b66 27bb dd06 be3c
00000210: 9ecd 323d a9c0 a2bd df76 453d 9037 0f3d
00000220: 0d9e 0dbd e719 913d 0dfd af3c 4c00 8dbd
00000230: a7a7 a03d efab 0b3d d2a9 6d3d fbcb 373c
00000240: f061 c13c d629 8e3c 6472 a43d 9a4e 833d
00000250: a213 ec3c 6798 ff39 bdb7 83bd cff3 5e3d
00000260: 949f 2fbd d1e9 983c de7c 5c3d be6d fabc
00000270: 0704 cfbb a375 72bd 4d2b f7bc 88c8 90bd
00000280: 829c 07bc 89ba a33d e105 98bd 2817 3fbd
00000290: 8658 93bd dcd4 e0bc 5189 793d b90b 5a3d
000002a0: e77b b53d f30a f63c 75d7 963d 7f17 5cbd
000002b0: 60d3 18bd b90f 96bd cb93 b9bd 972f bc3c
000002c0: 5659 59bc cb82 82bd cc0c e5bb 738a b3bd
000002d0: 5911 563d 7420 403d b1cf 66bc 6376 b1bb
000002e0: 921d ed3b 3f83 ee3b 09d5 c03b e2f5 cfbc
000002f0: 1097 bcbc 8b7f ed3c beb1 c2bc a31d 043d
00000300: 5cb0 c0bc e6b0 ab3d 11ea 7e3d a152 77bd
00000310: d90e 9fbd dbde 3b3d 75cb 99bd bb79 a13d
00000320: fc5c b2bd d514 4e3d 58ae cf3b 03d2 2b3c
00000330: 44bc 933d 8351 953d e89e 80bc 745d d6bc
00000340: 82dc 093d 7197 dcbb 4b95 88bd 6e48 a5bd
00000350: d433 7bbd 810e 8d3d 5529 b93b ca11 843b
00000360: b92d 3abd 01bc 28bd b939 b73c 577e 883d
00000370: 0024 34bd 0581 73bd d156 d23c d0e0 f13a
00000380: 8e3c f5bc e382 cabd 429b a43d 04ab dabc
00000390: eee1 143d 70d3 b0bd 0056 8fbd 1989 843d
000003a0: d7e4 8ebd c85a 2fbc 0d8d dd3b 095f 183c
000003b0: 4781 95bd 26e9 223d 1fbb e7bb 2f71 cd3c
000003c0: c88a 8c3d 7a67 8dbd 11e7 863c 9172 0d3d
000003d0: c7a7 24bd 5ea6 743d b890 953d e9b4 49bd
000003e0: 6799 73bc a181 0c3d 2d57 3abd 3fd8 bebd
000003f0: 44cc b53d 5831 6fbb ba52 753d cf4e 393d

rnn.bias_ih_l0 f4 [128]
-0.012888534 0.023491137 0.06555537 0.067557506 -0.024809703 0.0061815954 0.05035285 -0.06792552
0.06372309 0.039786603 -0.041636072 0.08250373 0.07252296 -0.06400323 0.022909172 0.022016568
-0.06491478 0.08935645 -0.06278966 -0.038905118 0.087603845 0.07721525 0.050885152 -0.004812683
-0.02172684 0.011462532 -0.061052095 -0.09160577 -0.011668675 -0.066526175 0.061245732 0.04260833
-0.053960025 -0.01411048 -0.07301757 -0.03034591 -0.065603144 0.04693826 0.06524149 -0.001074565
-0.044963073 0.028350513 0.06913529 0.06532543 -0.009112197 -0.036983743 0.069128305 0.010664667
-0.02189055 -0.043557033 -0.07831471 0.0063791107 -0.059454616 -0.055387393 -0.034680698 0.061608247
-0.030750463 -0.08071085 -0.048262373 0.07670137 -0.037273046 -0.063160785 -0.007245503 -0.08180081
0.04515555 -0.028593007 0.03999433 0.08403011 -0.041945506 0.029525736 -0.079076275 0.060335938
-0.008007031 0.060018044 -0.0070271627 -0.060699888 0.047821917 0.006754762 0.0840563 0.07332499
0.08977273 -0.021726642 0.06852713 0.012698889 -0.029888947 0.044042557 0.060624577 -0.001527413
-0.08426916 -0.03452381 0.022097282 0.06815289 0.070660464 -0.016671576 0.0072316257 -0.03463659
-0.030500058 -0.02031408 -0.0031197008 0.02728563 0.0010606416 0.02251108 -0.03737198 -0.05610001
-0.074054934 -0.026754834 0.043099158 0.058890995 -0.040956035 -0.0032743933 0.029288739 -0.008986116
-0.028222742 0.024121251 -0.05038551 -0.07099352 0.0773162 0.0210317 0.025346655 -0.07446721
0.048002638 0.008791089 0.0113810375 0.033011697 -0.07903296 -0.0019783995 0.028216511 0.022129297
00000000: 6e2a 53bc 7c70 c03c e541 863d 975b 8a3d
00000010: b83d cbbc fb8e ca3b ca3e 4e3d 891c 8bbd
00000020: 4081 823d 47f7 223d 968a 2abd b7f7 a83d
00000030: eb86 943d 2014 83bd 04ac bb3c 175c b43c
00000040: 0af2 84bd 8400 b73d de97 80bd f95a 1fbd
00000050: a569 b33d 0723 9e3d f36c 503d b6b3 9dbb
00000060: 7cfc b1bc 58cd 3b3c c311 7abd ce9b bbbd
00000070: f82d 3fbc e03e 88bd cedc 7a3d 1286 2e3d
00000080: 3005 5dbd a52f 67bc 3c8a 95bd fc97 f8bc
00000090: f15a 86bd 5542 403d 559d 853d 6bd8 8cba
000000a0: 332b 38bd 563f e83c ce96 8d3d 57c9 853d
000000b0: 534b 15bc 447c 17bd 2493 8d3d dbba 2e3c
000000c0: d053 b3bc dc68 32bd 7663 a0bd dc07 d13b
000000d0: af86 73bd e4dd 62bd 590d 0ebd ee58 7c3d
000000e0: 65e8 fbbc bb4b a5bd c4ae 45bd 9c15 9d3d
000000f0: 9fab 18bd 715a 81bd af6b edbb 2f87 a7bd
00000100: 07f5 383d e23b eabc 18d1 233d fa17 ac3d
00000110: 0dcf 2bbd f5df f13c bef2 a1bd d122 773d
00000120: ec2f 03bc 7bd5 753d 1d44 e6bb 72a0 78bd
00000130: eae0 433d 0d57 dd3b b625 ac3d 6a2b 963d
00000140: c4da b73d 12fc b1bc f457 8c3d 000f 503c
00000150: aad9 f4bc f865 343d 7a51 783d 7a33 c8ba
00000160: 4f95 acbd d768 0dbd 5c05 b53c be93 8b3d
00000170: 6fb6 903d d492 88bc 46f7 ec3b 19df 0dbd
00000180: 42db f9bc b769 a6bc e573 4cbb 1d86 df3c
00000190: 3a05 8b3a 2869 b83c 5c13 19bd 20c9 65bd
000001a0: 1daa 97bd f42c dbbc be88 303d af37 713d
000001b0: 84c1 27bd 3497 56bb f0ee ef3c 813a 13bc
000001c0: 6133 e7bc ee99 c53c 0961 4ebd 0d65 91bd
000001d0: f557 9e3d ac4a ac3c caa3 cf3c 4482 98bd
000001e0: 6a9e 443d 8008 103c 8877 3a3c 4637 073d
000001f0: 08dc a1bd 09a8 01bb 5026 e73c 8048 b53c

rnn.bias_hh_l0 f4 [128]
0.035571065 0.0035128633 0.06827871 -0.07545639 -0.07856467 0.07189551 -0.0925928 0.054751538
-0.012483355 0.034807827 -0.040497012 0.050915428 0.05767923 0.024159597 0.07707291 0.08335582
0.051122997 -0.011035351 0.0012538407 -0.077943936 -0.08468052 -0.08715212 -0.0016178164 -0.047104985
0.022889003 0.06296297 0.028459394 0.068045266 0.087854825 0.038702156 -0.07758185 0.032748412
0.07135913 -0.06497732 -0.01191918 0.009071083 0.05792597 -0.040851735 -0.073140256 -0.007850271
-0.070952296 0.011943511 -0.07355287 0.035226915 0.029893324 0.03335627 0.04250428 -0.034089364
0.058252573 0.00758384 -0.03806301 -0.0151244635 0.06378358 0.045522697 -0.018861786 -0.07173994
-0.05279756 -0.01193331 -0.017449342 0.08443415 0.0084621515 -0.06313533 0.06854714 -0.054958295
0.065153986 0.017616976 0.08074286 0.021945868 0.047297727 0.026498182 -0.028638037 -0.021901084
0.028482452 0.03790313 0.062911846 0.07285684 -0.021597736 0.01228678 0.0005969162 0.039119925
0.09257649 0.045680348 0.050071936 0.059085462 -0.06708026 -0.012535774 -0.0194511 -0.057599045
0.0029629422 -0.038360406 -0.07216506 -0.032527186 -0.05450027 -0.04618452 0.08248634 0.008821303
0.030393634 0.02624947 -0.06690773 -0.08038871 0.07491899 -0.07943934 -0.04489451 0.02947674
0.0056739408 0.008993281 -0.0377336 0.039065797 0.023035735 -0.0020061284 -0.024336644 -0.0155316675
-0.025257988 0.06851824 -0.02619745 -0.045796346 -0.03614539 0.03917964 -0.07589862 0.07427049
-0.04221105 -0.026106915 0.07633255 -0.016191626 -0.026563454 0.06094426 0.010130935 0.03960065
00000000: f7b2 113d 1138 663b b5d5 8b3d e188 9abd
00000010: 84e6 a0bd f43d 933d 4ba1 bdbd 2643 603d
00000020: fc86 4cbc a792 0e3d 32e0 25bd b28c 503d
00000030: 0e41 6c3d 59ea c53c 67d8 9d3d 75b6 aa3d
00000040: 5966 513d 9ecd 34bc ea57 a43a 12a1 9fbd
00000050: fb6c adbd d07c b2bd e90c d4ba 28f1 40bd
00000060: b881 bb3c bbf2 803d ad23 e93c 515b 8b3d
00000070: 3bed b33d 2786 1e3d 3ce3 9ebd 3323 063d
00000080: bc24 923d d412 85bd aa48 43bc e19e 143c
00000090: c843 6d3d 2654 27bd 8fca 95bd 6c9e 00bc
000000a0: 704f 91bd b7ae 433c e3a2 96bd 194a 103d
000000b0: d8e2 f43c 96a0 083d f818 2e3d 4aa1 0bbd
000000c0: 409a 6e3d dc81 f83b f5e7 1bbd 99cc 77bc
000000d0: f7a0 823d 0276 3a3d 0884 9abc 64ec 92bd
000000e0: 4142 58bd ee83 43bc ecf1 8ebc d0eb ac3d
000000f0: d6a4 0a3c 194d 81bd 7162 8c3d f31b 61bd
00000100: 746f 853d 7a51 903c 835c a53d d2c7 b33c
00000110: 43bb 413d b712 d93c 519a eabc e769 b3bc
00000120: 0854 e93c 5040 1b3d edd7 803d f835 953d
00000130: bced b0bc 7e4e 493c 5e7a 1c3a 373c 203d
00000140: be98 bd3d 511b 3b3d 3b18 4d3d 9903 723d
00000150: 6061 89bd d962 4dbc ea57 9fbc faec 6bbd
00000160: ec2d 423b cd1f 1dbd 46cb 93bd 3a3b 05bd
00000170: ad3b 5fbd fb2b 3dbd 99ee a83d 3a87 103c
00000180: 12fc f83c 2109 d73c ec06 89bd d6a2 a4bd
00000190: 216f 993d 18b1 a2bd 4ee3 37bd 3479 f13c
000001a0: 77ec b93b 8e58 133c 8c8e 1abd 7503 203d
000001b0: 70b5 bc3c 4079 03bb a45d c7bc 8978 7ebc
000001c0: d7e9 cebc 4a53 8c3d 099c d6bc f394 3bbd
000001d0: 300d 14bd d57a 203d bc70 9bbd 201b 983d
000001e0: 7ee5 2cbd 2bde d5bc 3d54 9c3d 4da4 84bc
000001f0: 9a9b d9bc b0a0 793d 39fc 253c 4b34 223d

linear.0.weight f4 [1, 128]
-0.08806034 -0.071084894 -0.010786297 -0.033394843 -0.05632735 0.08974176 -0.115343705 -0.17068607
0.09688395 0.12934934 0.049491875 -0.049563386 0.102373905 0.020756286 -0.08406395 0.12074303
0.11740821 -0.12676026 -0.09537531 -0.044499006 -0.04413699 0.065209515 0.07726267 0.11471064
0.14547877 0.06761215 -0.031890996 0.14968681 -0.070656896 0.08661167 0.13425381 -0.15291882
0.07254968 0.15028678 -0.09986442 -0.047893185 0.05267695 0.0702785 -0.066202536 0.0547404
-0.104838766 0.13436638 -0.06108259 -0.07957716 -0.074368104 0.10859719 0.1259858 -0.07480752
-0.015802458 0.097583 0.019397685 -0.08905082 -0.11185281 -0.11214249 0.11347516 -0.16562603
0.16070914 -0.0070653474 -0.15052927 0.052494466 -0.0869603 0.044731945 -0.033640668 -0.079209484
0.0040873294 -0.085129976 -0.15240906 0.03772103 0.11262366 -0.0065240418 -0.07607895 -0.017669339
-0.034784745 0.10826476 0.07832569 0.014600841 0.12937422 -0.08694853 0.042931736 0.050444063
0.08928727 0.10501421 -0.025679117 -0.09805366 0.16136377 -0.04039313 -0.11797203 -0.06761394
0.05167805 0.09675174 0.10643944 -0.093490764 -0.053537767 -0.12235713 -0.011879939 -0.111158624
0.081882834 -0.06705755 -0.061756678 -0.09652787 0.13635282 -0.07833035 0.10389745 -0.11758659
-0.11494727 -0.055049647 -0.07661756 0.12963507 0.092085294 -0.08714378 -0.15351379 -0.09091622
0.054898866 -0.046136033 -0.14435048 0.096189894 0.01970171 -0.12262853 0.11058378 0.059429254
-0.11593283 -0.040719375 -0.15920667 0.14654234 -0.09254767 0.007206222 -0.0028670502 0.1073552
00000000: fb58 b4bd f594 91bd 02b9 30bc 08c9 08bd
00000010: 82b7 66bd 87ca b73d 5239 ecbd 54c8 2ebe
00000020: 186b c63d 2774 043e feb7 4a3d fa02 4bbd
00000030: 69a9 d13d 1609 aa3c b829 acbd 1f48 f73d
00000040: b773 f03d 71cd 01be 2154 c3bd 9744 36bd
00000050: fdc8 34bd 918c 853d e43b 9e3d 69ed ea3d
00000060: 63f8 143e 3d78 8a3d 22a0 02bd 8047 193e
00000070: 90b4 90bd 7661 b13d d579 093e c096 1cbe
00000080: ed94 943d c7e4 193e b885 ccbd a52b 44bd
00000090: c9c3 573d 2dee 8f3d 3295 87bd 7837 603d
000000a0: b5b5 d6bd 5797 093e bd31 7abd 5af9 a2bd
000000b0: 4e4e 98bd 3468 de3d 6c02 013e af34 99bd
000000c0: 2874 81bc 99d9 c73d e5e7 9e3c 4760 b6bd
000000d0: 1613 e5bd f6aa e5bd aa65 e83d df99 29be
000000e0: f090 243e 6e84 e7bb 5824 1abe 7004 573d
000000f0: 3e18 b2bd d838 373d ccca 09bd 9538 a2bd
00000100: 01ef 853b a058 aebd 1f11 1cbe 5e81 1a3d
00000110: 3ca7 e63d a1c7 d5bb 48cf 9bbd 4abf 90bc
00000120: 737a 0ebd eab9 dd3d 3869 a03d 5e38 6f3c
00000130: ad7a 043e 1212 b2bd 30d9 2f3d 6f9e 4e3d
00000140: 3fdc b63d b111 d73d 035d d2bc 5bd0 c8bd
00000150: 8b3c 253e 4473 25bd 529b f1bd 2d79 8abd
00000160: 5dac 533d c725 c63d ecfc d93d 1678 bfbd
00000170: 6b4a 5bbd 6096 fabd 13a4 42bc 22a7 e3bd
00000180: 30b2 a73d 7855 89bd 92f4 7cbd 67b0 c5bd
00000190: 13a0 0b3e aa6b a0bd 30c8 d43d 3dd1 f0bd
000001a0: 7969 ebbd bd7b 61bd abe9 9cbd 0ebf 043e
000001b0: 3797 bc3d 7078 b2bd b832 1dbe 4832 babd
000001c0: a2dd 603d 23f9 3cbd 9dd0 13be 35ff c43d
000001d0: 7b65 a13c ab24 fbbd c079 e23d 176c 733d
000001e0: 316e edbd 5cc9 26bd 1307 23be 320f 163e
000001f0: a289 bdbd 2c22 ec3b 1fe5 3bbb 0bdd db3d
