models/014-rnn_hs_128_1.pt (torch, 72354 bytes, 5 tensors)

rnn.weight_ih_l0 f4 [128, 5]
0.10957308 -0.036477685 -0.011972044 0.041431274 -0.080605775 0.1060263 -0.015988532 0.035064355
0.002565734 0.002592319 -0.08828654 0.006940667 0.031056866 -0.030688921 -0.010918349 0.029658651
0.014211786 -0.004670636 0.067674376 0.027093057 -0.06893821 -0.054123566 -0.006512422 -0.042196095
-0.036529496 0.045684543 0.054112654 0.042079907 -0.07472521 0.05040016 -0.08710444 0.07721255
0.061897174 -0.06630614 -0.04805873 -0.11422607 0.07003522 -0.012395396 0.02272001 -0.03546728
0.14243138 -0.035368014 0.05904198 -0.002420716 -0.024831751 0.17145026 -0.040940184 0.013758497
-0.006353121 0.001160627 -0.19524053 -0.040641215 0.040264454 -0.0148715805 0.0493395 0.05371323
-0.0057514724 -0.05883429 0.054608826 0.037449323 -0.10805605 0.056952253 0.04281714 0.05692706
-0.035753053 0.048548438 0.0033089623 0.008765806 -0.04444701 -0.038894136 0.1777213 -0.02059992
0.03715042 -0.0014154386 0.0047442145 -0.08324504 0.023920882 0.06295589 -0.07290966 0.045968886
-0.0903106 -0.061510902 0.005582201 -0.009636603 0.05110334 0.049483933 -0.076536305 0.06926003
-0.00096252916 0.050403748 -0.08639541 -0.06935374 0.019915923 0.016753098 -0.027701957 -0.10929947
0.026669541 0.01671663 -0.028651338 -0.034296148 0.13925152 -0.013633463 0.04548123 0.029588459
-0.039648846 -0.05338069 0.08798362 0.0034909297 0.06253584 0.010237458 0.066886 0.058042146
0.08269439 -0.03683258 0.009147838 0.16625136 0.05209984 0.03412323 -0.03671786 -0.032881167
-0.010397222 0.018320885 0.086071745 -0.048009925 0.04635686 -0.14130309 -0.082308 -0.015626527
0.018920038 0.050687376 -0.10267499 0.020136658 0.06684621 0.03400764 0.030500544 0.077189915
0.051372718 0.031413093 -0.051959682 -0.07813611 -0.1304004 -0.009187408 -0.046743836 0.015818851
0.008323597 -0.011936917 0.033459526 0.020667862 0.03738358 0.046028573 -0.055172384 0.085096434
-0.01050855 0.0014105608 -0.07864997 0.022353983 -0.045054357 -0.038386725 0.04570284 -0.019141713
-0.114773065 0.0325364 0.021480646 0.05520322 -0.047391754 0.0717604 -0.029211473 -0.012995788
-0.043354616 -0.0129942 -0.06502425 0.036766984 0.01227922 0.012919815 0.06659884 0.15001516
0.058322385 0.0028395574 -0.0336441 0.048230413 0.07153065 -0.005646863 -0.06589992 -0.010406264
-0.022957709 0.093937844 -0.0766773 -0.067560725 -0.005179182 -0.045555055 -0.07050245 -0.028874572
-0.028971 0.0126628345 0.04112874 -0.094350435 0.040629745 0.048352633 0.073851384 -0.057592005
-0.043586366 -0.06059146 0.068011165 -0.015967574 0.02400561 -0.051360473 -0.011685956 -0.0060656494
0.0016285639 0.046346944 0.120064154 0.026627036 -0.0666394 0.021939997 0.03607682 0.17202811
0.06028251 -0.04931476 -0.014443511 0.040936656 -0.14989752 0.07273718 -0.059348885 -0.041870974
0.020904308 0.017249603 -0.012753322 0.05418533 0.05305227 0.07449648 -0.10770915 -0.060655598
0.06622801 -0.006389284 -0.019761793 -0.037938327 -0.060709573 0.049868777 0.045788404 -0.055973124
-0.09666637 -0.01048326 0.02462298 0.0016495324 -0.024474468 -0.03632477 -0.086724475 -0.047102142
-0.034846716 0.04773602 0.1669365 -0.024503056 0.0116279675 0.02292749 0.016847927 -0.08113861
00000000: da67 e03d a069 15bd 6426 44bc d7b3 293d
00000010: a414 a5bd 5124 d93d 62fa 82bc a49f 0f3d
00000020: e025 283b e5e3 293b 93cf b4bd 896e e33b
00000030: f86a fe3c 5567 fbbc e0e2 32bc b3f6 f23c
00000040: 8dd8 683c 220c 99bb dd98 8a3d 42f2 dd3c
00000050: 7a2f 8dbd acb0 5dbd 2866 d5bb d0d5 2cbd
00000060: f49f 15bd b71f 3b3d 3ba5 5d3d fb5b 2c3d
00000070: 8809 99bd 6670 4e3d d063 b2bd 9d21 9e3d
00000080: e487 7d3d 83cb 87bd 3bd9 44bd 5cef e9bd
00000090: a06e 8f3d 0f16 4bbc 501f ba3c 2346 11bd
000000a0: 88d9 113e 0dde 10bd 01d6 713d e0a4 1ebb
000000b0: f56b cbbc a890 2f3e e5b0 27bd 526b 613c
000000c0: d72d d0bb 2e20 983a 22ed 47be 6777 26bd
000000d0: 57ec 243d eea7 73bc 3718 4a3d 6702 5c3d
000000e0: d976 bcbb 39fc 70bd 81ad 5f3d 7664 193d
000000f0: 7e4c ddbd c446 693d 0761 2f3d 592c 693d
00000100: cb71 12bd bada 463d 2ddb 583b 759e 0f3c
00000110: 110e 36bd 754f 1fbd 93fc 353e 2ac1 a8bc
00000120: 0a2b 183d 3d86 b9ba 5b75 9b3b 607c aabd
00000130: baf5 c33c 05ef 803d a951 95bd df49 3c3d
00000140: c4f4 b8bd dbf2 7bbd e5ea b63b d8e2 1dbc
00000150: bc51 513d aaaf 4a3d 11bf 9cbd 34d8 8d3d
00000160: 3d52 7cba 2974 4e3d 14f0 b0bd 5509 8ebd
00000170: b826 a33c cb3d 893c 37ef e2bc 67d8 dfbd
00000180: 157a da3c 50f1 883c 36b6 eabc 1e7a 0cbd
00000190: f397 0e3e e35e 5fbc 874a 3a3d 7f63 f23c
000001a0: d466 22bd b6a5 5abd c230 b43d 15c8 643b
000001b0: ca12 803d 03bb 273c 87fb 883d 9abd 6d3d
000001c0: ad5b a93d c2dd 16bd d0e0 153c cc3d 2a3e
000001d0: a466 553d cdc4 0b3d 7765 16bd 67ae 06bd
000001e0: 1c59 2abc ae15 963c 6246 b03d 0ea6 44bd
000001f0: b1e0 3d3d c2b1 10be 1991 a8bd 3403 80bc
00000200: 32fe 9a3c 919d 4f3d 4447 d2bd a2f5 a43c
00000210: aae6 883d 984b 0b3d 47dc f93c bf15 9e3d
00000220: 336c 523d 04ab 003d add3 54bd d305 a0bd
00000230: af87 05be c886 16bc 7776 3fbd 8996 813c
00000240: b25f 083c 0f93 43bc db0c 093d a64f a93c
00000250: 861f 193d 7588 3c3d 70fc 61bd 0a47 ae3d
00000260: 0e2c 2cbc 91e2 b83a 3c13 a1bd b31f b73c
00000270: eb8a 38bd 663b 1dbd e732 3b3d 15cf 9cbc
00000280: 240e ebbd e344 053d 2ef8 af3c c61c 623d
00000290: db1d 42bd 1ef7 923d e64c efbc 49ec 54bc
000002a0: 9c94 31bd a0e5 54bc 6f2b 85bd fa98 163d
000002b0: c82e 493c a2ad 533c f964 883d 939d 193e
000002c0: 74e3 6e3d de17 3a3b 65ce 09bd 418d 453d
000002d0: a97e 923d 5209 b9bb 8af6 86bd 097f 2abc
000002e0: ce11 bcbc 7c62 c03d fd08 9dbd 475d 8abd
000002f0: 21b6 a9bb f097 3abd 9763 90bd 5e8a ecbc
00000300: 9754 edbc c777 4f3c 9c76 283d cd3a c1bd
00000310: 606b 263d 690d 463d 653f 973d 98e5 6bbd
00000320: 9e87 32bd c02e 78bd 7049 8b3d 6ece 82bc
00000330: 6aa7 c43c 5c5f 52bd 7476 3fbc 5bc2 c6bb
00000340: 8975 d53a 4bd6 3d3d 32e4 f53d f120 da3c
00000350: 3d7a 88bd 82bb b33c 4ac5 133d 2328 303e
00000360: cbea 763d 46fe 49bd 7aa4 6cbc 32ad 273d
00000370: bc7e 19be 3bf7 943d d117 73bd e680 2bbd
00000380: 833f ab3c 0a4f 8d3c 4ff3 50bc 70f1 5d3d
00000390: 564d 593d 9c91 983d 9d96 dcbd 0172 78bd
000003a0: 8da2 873d 335d d1bb 7ce3 a1bc 3865 1bbd
000003b0: 9aaa 78bd 3443 4c3d 9f8c 3b3d 1344 65bd
000003c0: 05f9 c5bd fbc1 2bbc 22b6 c93c 1f35 d83a
000003d0: ae7e c8bc 48c9 14bd 9a9c b1bd 2dee 40bd
000003e0: 6ebb 0ebd d886 433d 67f1 2a3e a2ba c8bc
000003f0: 3b83 3e3c 6ed2 bb3c aa04 8a3c 002c a6bd

rnn.weight_hh_l0 f4 [128, 128]
-0.0005577844 -0.021298962 0.07180611 0.078847416 0.050177857 0.043485664 -0.06994183 0.07996849
-0.074252985 -0.025890723 -0.06292461 0.037373677 -0.06591995 -0.038435265 -0.05447539 -0.044653855
-0.04574978 0.08417656 -0.0040642233 0.019988919 -0.07781523 0.069430776 -0.0098186135 -0.08098817
0.050474185 -0.029974269 0.081268825 -0.051947523 -0.0802437 -0.0703001 0.033438828 -0.021177353
-0.08123726 0.019477839 -0.009636985 0.034101453 -0.047397226 -0.056299627 0.060872424 -0.045264058
0.06366046 0.075129695 -0.060692877 -0.039939035 0.0051615117 -0.08438221 0.026995167 -0.038515568
-0.043949436 -0.0659189 0.04107915 -0.04854219 -0.06840751 -0.02234277 -0.045647237 -0.09039232
0.03556958 -0.03996539 0.06163615 0.0633489 -0.05879195 -0.054782975 -0.036234543 0.049954534
-0.011355168 -0.0321728 0.061176833 0.084074475 0.057476744 -0.07033308 -0.016226517 -0.015788557
0.06931439 -0.047159124 -0.056201417 -0.00020893036 -0.026033517 0.046655226 0.0062915436 -0.0435741
0.060511343 0.048369598 0.016104339 -0.08282766 0.040399347 0.054199096 0.03177077 -0.03771765
-0.0012220821 -0.030300252 0.09236435 0.085822076 -0.0043715937 -0.06181465 0.04417485 0.054026376
0.05682492 -0.074702404 0.033580665 -0.027095474 -0.08830006 -0.065497816 0.029985001 0.03459426
-0.07886764 0.039407596 0.073428564 0.06630679 0.052053016 -0.006670751 0.063242026 0.06705192
0.04360342 -0.06869294 -0.0298017 0.0643634 0.07409163 0.048906147 -0.03878129 -0.016572557
-0.060325295 -0.05150114 0.06500209 -0.065116145 -0.016467297 0.02626668 -0.053891197 0.025315868
-0.008842618 0.039111547 -0.06558489 0.015849069 -0.08249536 0.059966516 0.083023444 -0.036726296
0.012858928 -0.041897025 -0.058243774 -0.033765 -0.040670384 0.021303024 -0.008072921 0.015699014
-0.07306309 -0.062288385 -0.07332559 -0.071689464 0.07697979 0.021879172 -0.08240328 -0.014272825
-0.0052499264 0.041128006 0.07679109 0.026843041 0.06913032 -0.040352665 -0.007502432 -0.06132439
0.013446853 0.08935011 0.05074594 0.09473183 -0.03883516 -0.0016348886 0.023165237 0.063270286
-0.08535667 -0.034185942 0.017967625 -0.048058502 0.031604253 -0.013625129 -0.028944371 0.039542165
0.054549273 0.0910263 0.041623212 0.0020026213 0.07673523 0.071869805 -0.044879958 0.03645848
0.0018265977 -0.047031872 -0.025850616 -0.018945629 -0.06991624 -0.03125741 0.031716608 0.060421664
0.0038186123 -0.08559869 0.051737346 -0.02632632 0.07336086 -0.087265864 -0.015235692 0.07028334
0.027104992 -0.043738216 -0.08154438 -0.005922335 0.02454947 -0.06585689 -0.076394156 0.0031483374
-0.024796126 0.054082695 -0.0920737 -0.022743752 -0.06812672 -0.016862068 -0.035754453 0.024147829
-0.079003744 -0.06928171 -0.044888988 -0.07308058 0.05773311 -0.01703267 -0.059913304 0.0644753
-0.01206326 0.03640241 -0.025023531 -0.059174042 0.014765657 0.052354015 -0.08792689 0.0106202485
0.012825175 0.00011216822 -0.0020295614 -0.027291864 -0.057025384 0.017025637 -0.059493367 -0.069923446
-0.031687677 -0.062376037 0.033424262 0.056821276 0.07782261 -0.06332168 0.04277776 0.069091775
0.003760054 0.032249365 0.048378296 0.072250105 0.05158535 0.043689366 -0.028595367 -0.039576747
00000000: 4738 12ba 297b aebc 150f 933d c17a a13d
00000010: 4c87 4d3d 061e 323d aa3d 8fbd 85c6 a33d
00000020: f311 98bd c818 d4bc 9ede 80bd 2415 193d
00000030: 0a01 87bd 4c6e 1dbd 9621 5fbd f6e6 36bd
00000040: 1f64 3bbd c364 ac3d 2d2d 85bb cdbf a33c
00000050: 975d 9fbd b931 8e3d 40de 20bc 20dd a5bd
00000060: 05be 4e3d 998c f5bc 4570 a63d edc6 54bd
00000070: cf56 a4bd 80f9 8fbd 27f7 083d 217c adbc
00000080: b85f a6bd fd8f 9f3c 72e4 1dbc f7ad 0b3d
00000090: 9823 42bd 709a 66bd 5d55 793d ce66 39bd
000000a0: 6a60 823d 99dd 993d 1899 78bd 1d97 23bd
000000b0: e621 a93b 95d0 acbd f824 dd3c 80c2 1dbd
000000c0: 5304 34bd 7d00 87bd 9c42 283d 2dd4 46bd
000000d0: 3d19 8cbd 2f08 b7bc 99f8 3abd 9c1f b9bd
000000e0: 68b1 113d c0b2 23bd 3076 7c3d 11bd 813d
000000f0: d4cf 70bd 1d64 60bd ac6a 14bd 209d 4c3d
00000100: 070b 3abc a0c7 03bd 8f94 7a3d 3d2f ac3d
00000110: bc6c 6b3d ca0a 90bd 79ed 84bc 0157 81bc
00000120: b4f4 8d3d ed29 41bd 7533 66bd 5114 5bb9
00000130: 3e44 d5bc 8d19 3f3d 4b29 ce3b c17a 32bd
00000140: beda 773d 331f 463d 3fed 833c 8ca1 a9bd
00000150: c979 253d dfff 5d3d 1122 023d d37d 1abd
00000160: 452e a0ba 3c38 f8bc 8529 bd3d 7cc3 af3d
00000170: 963f 8fbb 5c31 7dbd b0f0 343d c34a 5d3d
00000180: 3fc1 683d 93fd 98bd e18b 093d 54f7 ddbc
00000190: a9d6 b4bd b823 86bd 1ba3 f53c b6b2 0d3d
000001a0: 5b85 a1bd dc69 213d b761 963d dbcb 873d
000001b0: 8b35 553d 5196 dabb 0985 813d 8452 893d
000001c0: 8099 323d e2ae 8cbd b222 f4bc f5d0 833d
000001d0: 5abd 973d d051 483d 21d9 1ebd 2cc3 87bc
000001e0: a817 77bd dcf2 52bd d11f 853d 9d5b 85bd
000001f0: 6de6 86bc 382d d73c 04bd 5cbd 3963 cf3c
00000200: a1e0 10bc 6e33 203d 5f51 86bd e8d5 813c
00000210: 54f3 a8bd 739f 753d 3208 aa3d 506e 16bd
00000220: 41ae 523c 379c 2bbd 0691 6ebd 2b4d 0abd
00000230: fd95 26bd ae83 ae3c 4944 04bc 389b 803c
00000240: 1aa2 95bd 1b22 7fbd ba2b 96bd edd1 92bd
00000250: 95a7 9d3d f33b b33c 0dc3 a8bd 91d8 69bc
00000260: 9307 acbb d775 283d a644 9d3d f0e5 db3c
00000270: 3294 8d3d d648 25bd f6d6 f5bb 492f 7bbd
00000280: 3050 5c3c 31fd b63d fada 4f3d c302 c23d
00000290: 9e11 1fbd c249 d6ba 06c5 bd3c da93 813d
000002a0: 7acf aebd 8f06 0cbd d730 933c fed8 44bd
000002b0: 7673 013d ef3b 5fbc bf1c edbc f7f6 213d
000002c0: 0f6f 5f3d ff6b ba3d 1a7d 2a3d 693e 033b
000002d0: 5c27 9d3d 7a30 933d 0cd4 37bd 7d55 153d
000002e0: 736a ef3a 7ea4 40bd acc4 d3bc dd33 9bbc
000002f0: 3f30 8fbd c507 00bd 46e9 013d b57c 773d
00000300: af41 7a3b 5e4e afbd 8aea 533d 4baa d7bc
00000310: 383e 963d 72b8 b2bd 209f 79bc b6f0 8f3d
00000320: 4a0b de3c d826 33bd bd00 a7bd 2610 c2bb
00000330: f81b c93c fadf 86bd 8a74 9cbd 5654 4e3b
00000340: 3f21 cbbc d185 5d3d 2391 bcbd 1b51 babc
00000350: 0686 8bbd 5222 8abc 4373 12bd abd1 c53c
00000360: b7cc a1bd 92e3 8dbd 84dd 37bd 45ab 95bd
00000370: 8e79 6c3d 1988 8bbc a767 75bd a00b 843d
00000380: fba4 45bc b21a 153d 26fe ccbc 7b60 72bd
00000390: a7eb 713c 2a71 563d 0313 b4bd 8d00 2e3c
000003a0: af20 523c db3b eb38 6402 05bb 3093 dfbc
000003b0: 7393 69bd 5979 8b3c 51af 73bd 0634 8fbd
000003c0: f0ca 01bd 047e 7fbd e1e7 083d 6dbd 683d
000003d0: 7661 9f3d ccae 81bd bc37 2f3d fd7f 8d3d
000003e0: 3d6b 763b e917 043d 5228 463d ddf7 933d
000003f0: 294b 533d 9ff3 323d d540 eabc 3a1b 22bd

rnn.bias_ih_l0 f4 [128]
0.043889534 -0.057095215 -0.019802712 -0.078186266 -0.040984094 0.053565476 0.002545909 0.017039634
0.032395918 0.040128514 -0.0149828745 -0.036465213 0.0015583701 0.08109687 0.025068816 -0.019399786
0.055716358 -0.059467074 -0.054988004 -0.04760055 0.081599884 0.00597544 -0.065877385 0.05199866
0.089777805 0.04003229 0.0017015403 -0.042908978 0.00705307 0.03425 -0.029812127 -0.04075388
0.014695884 0.047538277 -0.025786981 0.00176144 -0.051279448 0.0074373386 -0.06093515 0.07622271
0.042846892 -0.066503935 -0.061653253 -0.06237362 -0.0717388 0.06735501 -0.00936304 0.054536715
0.050302997 -0.019413069 0.048648067 0.014354978 0.07327358 0.015513995 0.0365615 0.06541328
-0.018205686 0.04224627 -0.003172902 -0.07395651 0.043099985 -0.0622292 -0.0015419255 0.079548135
-0.01897298 -0.06657691 0.06483739 0.01854365 0.085319616 0.051558528 -0.0890129 0.04414453
-0.0651762 0.013577606 -0.07847417 0.069812335 0.08154979 -0.0006338313 -0.01955853 0.05118906
0.08181222 -0.0067262524 0.058562905 0.008583599 -0.055143062 0.08144519 -0.05510387 -0.058614686
0.057866752 0.03451061 0.03208364 -0.055453964 0.025006436 0.033187166 0.02872917 -0.0800882
0.029480683 0.029096568 -0.04702949 -0.037909795 -0.07952675 0.08189791 0.010525488 -0.036393788
0.06606971 -0.06783592 0.013834876 -0.01810241 -0.012506339 0.0050422773 -0.007980744 0.07987691
0.058366995 0.042465772 -0.013973577 -0.02855111 -0.037473317 -0.0011258951 0.016972471 0.06625236
-0.08945192 -0.07117668 -0.013499291 0.070928834 0.046211485 -0.049996536 0.044800792 0.041920196
00000000: 83c5 333d acdc 69bd 4c39 a2bc 1f20 a0bd
00000010: f0de 27bd 7967 5b3d 44d9 263b b496 8b3c
00000020: 95b1 043d cc5d 243d bb7a 75bc 8c5c 15bd
00000030: 3942 cc3a 1e16 a63d 1e5d cd3c 4dec 9ebc
00000040: d636 643d bf93 73bd 1a3b 61bd cbf8 42bd
00000050: d71d a73d a0cd c33b b9ea 86bd 8cfc 543d
00000060: 6ddd b73d e6f8 233d 3806 df3a 53c1 2fbd
00000070: 701d e73b ba49 0c3d 9038 f4bc 8aed 26bd
00000080: 01c7 703c 7fb7 423d 383f d3bc 1ee0 e63a
00000090: 660a 52bd ebb4 f33b 2397 79bd a71a 9c3d
000000a0: 3980 2f3d 3733 88bd 1f88 7cbd 7b7b 7fbd
000000b0: cbeb 92bd 6cf1 893d 7067 19bc e461 5f3d
000000c0: 840a 4e3d 2808 9fbc 3243 473d 2431 6b3c
000000d0: 7510 963d 692e 7e3c 83c1 153d 66f7 853d
000000e0: 1724 95bc 6d0a 2d3d 76f0 4fbb 8376 97bd
000000f0: 9c89 303d 0ce4 7ebd 6f1a caba 22ea a23d
00000100: 396d 9bbc 7a59 88bd 77c9 843d dae8 973c
00000110: 0dbc ae3d 092f 533d 654c b6bd e5d0 343d
00000120: 197b 85bd 9b74 5e3c 11b7 a0bd c5f9 8e3d
00000130: 9403 a73d b327 26ba 3639 a0bc 9fab 513d
00000140: 2a8d a73d e567 dcbb a8df 6f3d 39a2 0c3c
00000150: b1dd 61bd bccc a63d 98b4 61bd f415 70bd
00000160: b005 6d3d ff5a 0d3d 236a 033d b223 63bd
00000170: 4cda cc3c 44ef 073d 7059 eb3c 4805 a4bd
00000180: 7981 f13c ed5b ee3c ffa1 40bd 4d47 1bbd
00000190: ecde a2bd 17ba a73d 1973 2c3c a711 15bd
000001a0: 8e4f 873d 8fed 8abd adab 623c 814b 94bc
000001b0: 63e7 4cbc b039 a53b abc1 02bc 8196 a33d
000001c0: 3b12 6f3d 97f0 2d3d 6ef1 64bc 04e4 e9bc
000001d0: 9f7d 19bd c592 93ba da09 8b3c 51af 873d
000001e0: 9132 b7bd 14c5 91bd 212c 5dbc 2343 913d
000001f0: 4148 3d3d 2bc9 4cbd 0981 373d 83b4 2b3d

rnn.bias_hh_l0 f4 [128]
0.015363354 0.049433284 0.08155403 0.03816912 -0.048810944 0.029484121 0.0067466907 0.074902706
0.04934519 0.0071835984 0.007266322 0.03194376 0.0805047 0.050968498 0.017841611 0.044834152
0.05699419 0.06780011 -0.0052589653 0.028917572 -0.010216162 0.07298785 -0.03905374 0.011427942
-0.031833123 -0.01325043 0.035215363 0.0011011392 -0.089540035 0.017574549 -0.0321148 0.0100005185
0.03228948 -0.008074263 0.04749852 -0.077536084 0.02418972 0.06602966 -0.012436146 0.07416057
-0.038474534 0.023204295 -0.07235019 -0.009607232 -0.048279744 0.040159747 0.03907536 -0.018947892
-0.05345931 -0.042980466 0.03835448 -0.027405057 -0.08858774 0.06226134 0.011073807 0.049599852
0.028046811 -0.016144626 -0.07841224 -0.00090584013 -0.011206662 0.02281872 -0.0833469 -0.005896952
-0.06754063 -0.03283934 -0.084458366 0.054720104 0.08758135 -0.03990102 -0.04040267 0.04842966
0.0009768208 -0.014946139 -0.010049894 -0.08622518 -0.06322256 0.052723523 -0.05297296 0.04793478
-0.033584055 -0.05878296 -0.03712376 0.057393815 -0.08869554 0.038935013 0.022943819 0.032370783
-0.073783614 -0.0646208 -0.029327596 -0.02974846 -0.03002503 0.028185956 0.04819137 0.06507578
-0.04643636 -0.05227732 0.08198214 -0.014019396 -0.017655693 0.054158576 -0.059249002 0.04393402
-0.03535345 0.0024361527 -0.038536068 -0.051241934 -0.013437859 0.017719522 -0.04025339 0.027870316
-0.07722657 -0.051795524 0.04234664 0.06947518 0.04531898 -0.0594019 0.04891442 -0.061130837
0.03977693 0.021516804 -0.031084914 -0.07426385 -0.07662423 -0.09752951 -0.007185859 0.06556084
00000000: 94b6 7b3c 8e7a 4a3d cd05 a73d 3957 1c3d
00000010: fced 47bd af88 f13c 5813 dd3b 9766 993d
00000020: 2f1e 4a3d 6464 eb3b 541a ee3b 76d7 023d
00000030: a6df a43d 58c4 503d 9228 923c 04a4 373d
00000040: bd72 693d c9da 8a3d 6653 acbb 8be4 ec3c
00000050: b061 27bc a77a 953d d1f6 1fbd 433c 3b3c
00000060: 7363 02bd 5518 59bc fc3d 103d 1a54 903a
00000070: c460 b7bd 80f8 8f3c cf8a 03bd 37d9 233c
00000080: f941 043d ea49 04bc cf8d 423d 3dcb 9ebd
00000090: 8529 c63c 8f3a 873d fac0 4bbc 7fe1 973d
000000a0: 7997 1dbd ef16 be3c 562c 94bd a767 1dbc
000000b0: fbc0 45bd 8c7e 243d 7c0d 203d 9c38 9bbc
000000c0: 26f8 5abd 490c 30bd 9619 1d3d 9280 e0bc
000000d0: 7d6d b5bd bf05 7f3d ea6e 353c 3729 4b3d
000000e0: 6dc2 e53c bc41 84bc 9996 a0bd e775 6dba
000000f0: 269c 37bc 53ee ba3c c8b1 aabd 383b c1bb
00000100: be52 8abd 8b82 06bd 82f8 acbd 3022 603d
00000110: da5d b33d 406f 23bd 457d 25bd 2e5e 463d
00000120: ab08 803a a7e0 74bc 50a8 24bc d496 b0bd
00000130: d47a 81bd 9ff4 573d 2dfa 58bd 4357 443d
00000140: 6f8f 09bd 67c6 70bd 150f 18bd c715 6b3d
00000150: 02a6 b5bd 527a 1f3d adf4 bb3c 3a97 043d
00000160: dd1b 97bd e957 84bd 6d40 f0bc 0bb3 f3bc
00000170: 0df7 f5bc 3ce6 e63c 5064 453d 7346 853d
00000180: 0d34 3ebd be20 56bd 41e6 a73d 9cb1 65bc
00000190: aca2 90bc 62d5 5d3d 15af 72bd 29f4 333d
000001a0: c7ce 10bd dca7 1f3b ffd7 1dbd 10e3 51bd
000001b0: 772a 5cbc 8828 913c bde0 24bd 4a50 e43c
000001c0: f728 9ebd 8b27 54bd ac73 2d3d 0149 8e3d
000001d0: 65a0 393d 684f 73bd 7d5a 483d 5464 7abd
000001e0: 22ed 223d 0244 b03c caa5 febc a517 98bd
000001f0: 2aed 9cbd 8dbd c7bd 5b77 ebbb c344 863d

linear.0.weight f4 [1, 128]
0.14455253 0.14528427 -0.11965773 0.08538547 -0.076412134 0.082830906 -0.117944896 -0.1276427
0.14899042 0.13577265 -0.120001815 -0.015209369 -0.06490675 0.12210553 0.13858113 -0.06446443
-0.060172886 0.043716725 -0.10264443 -0.11761346 0.1501817 -0.00085998664 0.07766074 0.15348276
0.01224626 -0.15742955 -0.11275984 0.032069348 -0.13505061 0.03205128 -0.039893817 0.07293248
-0.09956739 0.07567962 -0.066827394 0.156576 0.0890668 0.053167287 -0.032390196 -0.07404916
-0.06585091 -0.097239114 0.08454185 0.13265748 -0.14114179 0.05529054 -0.11207526 -0.10305705
-0.053615503 -0.022134492 0.061584044 -0.027478086 0.088506766 -0.1329511 0.12632743 -0.11878098
-0.08412757 -0.16122828 -0.054915864 -0.0036320535 -0.11528846 -0.125023 -0.080584146 -0.120567895
0.13450755 0.12829763 0.046032656 -0.08221876 0.05863378 -0.06980215 0.12881584 0.108795635
0.025445243 0.12973668 -0.11223946 -0.110811114 -0.09348144 -0.07292214 0.040712927 0.016912041
-0.019196095 -0.14546362 -0.00041514568 0.029781371 0.06697404 -0.07435304 0.05817544 -0.13210382
-0.10858041 0.1570412 -0.06238997 0.11512423 0.10661207 -0.008261531 0.066620365 0.089334436
-0.033291183 0.078372836 0.11621238 -0.017060228 -0.0048319492 -0.05889166 -0.048255764 -0.06401794
-0.16341726 0.033322286 0.115597814 -0.15724787 -0.07970422 0.15067774 0.07680763 0.051998183
-0.084029995 0.12281385 0.13764699 -0.14931877 0.027139688 -0.10762656 -0.14118946 0.06574848
0.09221651 -0.09819975 -0.114911735 0.039650444 0.031147849 -0.047052987 0.105371706 -0.07786558
00000000: 9405 143e 66c5 143e 1d0f f5bd 94de ae3d
00000010: f77d 9cbd 40a3 a93d 188d f1bd c5b4 02be
00000020: f290 183e fc07 0b3e 83c3 f5bd b830 79bc
00000030: d5ed 84bd 7712 fa3d 36e8 0d3e ed05 84bd
00000040: d877 76bd 4f10 333d 3e37 d2bd 53df f0bd
00000050: 3bc9 193e ba70 61ba 980c 9f3d 962a 1d3e
00000060: 8aa4 483c 3635 21be a2ee e6bd 265b 033d
00000070: b54a 0abe 3448 033d b367 23bd a05d 953d
00000080: fde9 cbbd ebfd 9a3d cddc 88bd 7555 203e
00000090: a868 b63d f1c5 593d 95ab 04bd 16a7 97bd
000000a0: d8dc 86bd 4d25 c7bd 4724 ad3d 5dd7 073e
000000b0: 7987 10be 5578 623d b787 e5bd 930f d3bd
000000c0: ee9b 5bbd 6553 b5bc 8d3f 7c3d b919 e1bc
000000d0: 0943 b53d 5524 08be fa5b 013e 7143 f3bd
000000e0: 134b acbd 0719 25be 75ef 60bd bf07 6ebb
000000f0: 5b1c ecbd 0806 00be 4d09 a5bd 4dec f6bd
00000100: 59bc 093e 7460 033e bd8c 3c3d 4f62 a8bd
00000110: f929 703d 6ef4 8ebd 4de8 033e 3fd0 de3d
00000120: 8b72 d03c b1d9 043e cddd e5bd f0f0 e2bd
00000130: 3273 bfbd 3458 95bd 99c2 263d 1f8b 8a3c
00000140: 2141 9dbc 6af4 14be e9a7 d9b9 10f8 f33c
00000150: af29 893d 6846 98bd 5f49 6e3d 3946 07be
00000160: 685f debd 69cf 203e a08c 7fbd 41c6 eb3d
00000170: 6e57 da3d 5f5b 07bc 4270 883d f9f4 b63d
00000180: 565c 08bd f081 a03d c200 ee3d e4c1 8bbc
00000190: 5455 9ebb 6238 71bd d6a7 45bd d61b 83bd
000001a0: db56 27be f37c 083d 8cbe ec3d 9605 21be
000001b0: f73b a3bd 444b 1a3e 524d 9d3d 0cfc 543d
000001c0: eb17 acbd d485 fb3d 55f3 0c3e 05e7 18be
000001d0: 0d54 de3c 506b dcbd f893 10be 24a7 863d
000001e0: 02dc bc3d f31c c9bd d856 ebbd 8168 223d
000001f0: c629 ff3c a2ba 40bd 1fcd d73d fd77 9fbd
